crucial_checkpoints/disc50epoch16x16.pth (torch, 311745 bytes, 9 tensors)

model.0.weight f4 [64, 3, 3, 3]
000000 76 e9 5e 3e 89 65 50 3d a0 20 52 be 41 5f ff 3d
       0.21768746 0.05087808 -0.20520258 0.1246934
000010 91 a0 2e bd 3e 33 06 3e 3e 35 e8 3d d5 e9 37 3c
       -0.042633597 0.13105485 0.1133828 0.0112251835
000020 2e 70 3a bd 9f b1 d7 3c 4a db ed 3d 85 ce 36 3d
       -0.04551714 0.026329814 0.11614092 0.044630546
000030 55 6e e6 bc 46 3a 30 be 0c 41 02 3e a1 93 3a bd
       -0.028128782 -0.1720973 0.12720126 -0.045550946
000040 7e 44 60 bd 08 65 57 3c 45 6c 2c 3d 03 82 0c be
       -0.05475282 0.013146646 0.04209544 -0.1372147
000050 99 c7 78 3e 41 9e 27 be f1 3a 56 be c9 88 b7 3d
       0.2429489 -0.16368963 -0.20920922 0.089616366
000060 c4 b6 c9 3c f3 d3 1d be f3 c5 e5 3d 3b d9 dc 3c
       0.024623282 -0.15412883 0.112193964 0.026959052
000070 e4 ba 32 be cd a4 21 be ea 73 06 3e a8 c5 94 bd
       -0.17454106 -0.15785523 0.13130155 -0.072642624
000080 28 0f 4d be e0 75 15 3d 07 26 5b bd 9a 88 9b 3d
       -0.20025313 0.036489367 -0.053503063 0.07594414
000090 c1 88 56 3e 95 44 8a 3d 0b 9a a1 3e 98 b4 86 bc
       0.20950605 0.06751362 0.31562838 -0.016443536
0000a0 fd bb 13 bd c3 30 4d 3e 0c 31 96 bd 96 32 7d 3d
       -0.03606795 0.20038132 -0.07333574 0.06181582
0000b0 48 cd fa bd 91 d3 6d bd 15 0f 00 bd c7 2f c9 bd
       -0.122461855 -0.058063094 -0.031264383 -0.09823566
0000c0 98 7d 9a bd e4 76 b9 3d 01 10 9b bd b8 e5 f4 3d
       -0.07543486 0.0905588 -0.07571412 0.11957878
0000d0 f4 6c 65 bd ac e0 8f 3d a0 ae 04 be 2c 45 d7 3b
       -0.05601211 0.07025275 -0.12957239 0.006569525
0000e0 8b b2 9f bd a5 e8 79 bd 64 f1 ae bd 10 ed f9 3b
       -0.07797726 -0.061012883 -0.08542135 0.007627137
0000f0 48 75 0c 3e 7e 64 3b 3e 0a e1 3b be 2e d4 33 3e
       0.13716614 0.18300053 -0.18347564 0.17561409
000100 f2 7e 13 be a3 53 e9 3d 1b d7 3a bd ea b1 60 3d
       -0.14403895 0.113929056 -0.045615297 0.054857172
000110 e1 8b 51 be 26 b6 ff bd 98 31 71 3e 52 d1 a2 bd
       -0.20463516 -0.12485914 0.23554075 -0.07950081
000120 76 53 c8 3c 77 2e 06 bc f3 ca 4e 3e 97 26 bc bd
       0.02445386 -0.008189789 0.20194606 -0.09187048
000130 16 b7 40 3e ca 32 94 3d 20 e9 58 bc 63 f8 ad 3e
       0.18819842 0.0723625 -0.013239175 0.33978567
000140 76 82 bc 3d d7 82 1a be 97 80 55 3d 17 c0 1c 3e
       0.09204571 -0.15088974 0.052124586 0.15307651
000150 59 e2 7a bd 55 81 89 be 70 ee 19 3e 41 44 ae 3d
       -0.06125102 -0.26856485 0.15032363 0.08509112
000160 ce 31 07 3d 20 ce d6 3d 25 b6 4e bd b6 74 a0 3c
       0.03300648 0.10488534 -0.050466675 0.019586902
000170 08 a9 82 3c 06 7a 6e bc c3 45 03 be 49 99 63 bc
       0.015949741 -0.01455546 -0.1281958 -0.0138915265
000180 e8 6e 56 bc c9 27 81 bb 19 f4 7b bd 5e 38 31 3e
       -0.013087966 -0.0039415103 -0.061512087 0.17306659
000190 c9 fc 39 bc d0 39 f9 bc eb 8a a0 3d 49 68 7a 3e
       -0.011351773 -0.030423075 0.078389965 0.24453844
0001a0 a6 8c 4d 3e ac 2b 83 bd 21 0c 07 bc 9a 07 67 bc
       0.20073184 -0.06404814 -0.008242638 -0.014100933
0001b0 c8 b0 58 3d e4 eb 03 be 74 f9 74 3c 3e 08 cd 3d
       0.052902967 -0.12882954 0.014952052 0.10011338
0001c0 07 99 51 3e 24 81 7a 3d bf e2 1d be b9 c7 16 be
       0.20468532 0.061158314 -0.15418528 -0.14724626
0001d0 c3 7c f8 bc 93 51 ae 3d 51 26 34 3e d0 e9 b7 bd
       -0.030332929 0.08511653 0.17592742 -0.08980143
0001e0 31 54 0e be 29 65 ca bd 34 6b 2c 3e 17 82 71 bd
       -0.13899304 -0.09882576 0.1683777 -0.058961954
0001f0 89 2e 03 3e 8a 72 60 bd c1 fc 1b be 37 10 04 bd
       0.1281072 -0.054796733 -0.15233137 -0.032242026
000200 98 c6 9d 3d 87 e9 20 3d 11 5b fc bd 36 6a 6a be
       0.077038944 0.03928521 -0.12322057 -0.22892079
000210 0a 05 5d 3e af 34 26 3d ce c0 cc 3d 2e db 9c 3d
       0.21583953 0.040577587 0.09997712 0.07658993
000220 54 f2 86 3d ce 77 b3 3d 4c fc c6 3c cc 41 61 3d
       0.06589189 0.08763085 0.024290226 0.05499439
000230 b2 b1 92 bc b2 23 af bc ae c5 f6 bd 26 83 01 3e
       -0.017906997 -0.021379326 -0.12049423 0.12647685
000240 6c d0 4a 3d 4a 36 d4 3d 30 ed 5c be ca 10 22 be
       0.049515173 0.10361917 -0.21574855 -0.15826717
000250 2b 11 9f 3d ed 67 8d 3d e1 a8 ce bd 10 25 d7 3c
       0.077669464 0.06904588 -0.10090805 0.02626279
000260 23 5e a5 3b 52 ff 2c 3d c4 5a 4a bd 7d 9f 15 bd
       0.0050466224 0.04223568 -0.049402967 -0.036529053
000270 40 2c 13 bd 6e 89 4a bd 05 68 cf 3d 52 4d 4b 3d
       -0.035930872 -0.04944747 0.10127262 0.049634285
000280 a8 a1 ee bc 95 9f e9 bc 32 56 e6 bd 80 e0 0b bc
       -0.029129818 -0.028518477 -0.11246909 -0.008537412
000290 c5 ac 64 3c 5e b8 39 bc e3 3f 05 3e de ff b5 3d
       0.013957207 -0.0113354605 0.13012652 0.088866934
0002a0 cf 45 16 bc 77 3a 0b be 0b cb ff 3d 5e 68 34 3d
       -0.009171917 -0.13596521 0.12489899 0.044044845
0002b0 1f 61 72 3a 1a cf 06 be 5b 90 41 bd 02 ed cb 3c
       0.00092460396 -0.1316494 -0.04725681 0.024893288
0002c0 b9 4c e6 bd a0 a5 87 bd c2 05 31 be 6b a2 d4 3d
       -0.112451024 -0.06623387 -0.17287353 0.10382541
0002d0 30 e2 7e 3e 9b 41 fb 3c f4 f8 3f bd eb 90 eb 3c
       0.24890971 0.030670932 -0.04686828 0.028755626
0002e0 3c 93 19 3e ce a3 1e be f8 c7 6b bd f3 91 e4 bd
       0.14997572 -0.15492174 -0.057563752 -0.1116065
0002f0 bb a7 10 3c eb 38 28 bd be 46 6a 3d ff 9f 02 be
       0.008829053 -0.041069906 0.05719637 -0.12756346
000300 15 24 39 3d ce 7e 80 3e f5 f8 22 3e 41 03 0d bd
       0.045200426 0.25096744 0.15915282 -0.03442693
000310 86 e7 d0 3d 50 71 0a be 0b ec 08 be 3c 9f 27 bd
       0.102004096 -0.13519788 -0.13371293 -0.040923342
000320 79 68 f8 3d 5d 4b a1 3d e4 19 11 3e ad 6e 24 3d
       0.121293016 0.078757025 0.14170033 0.04014461
000330 a0 22 0d bc 7e 31 8b bd ec 64 74 3d 48 f8 0b 3e
       -0.008614212 -0.06796549 0.05966656 0.1366893
000340 c8 61 f4 bd 15 c3 17 be ad 3c 54 bc ea f7 ad 3d
       -0.11932713 -0.14820512 -0.012953919 0.084945515
000350 1f 97 d1 3d 0e a2 3b 3d e3 8e 9e bd a7 03 05 be
       0.10233902 0.045808844 -0.07742097 -0.12989675
000360 b5 b9 9d bd 43 49 e1 bc 12 b1 a2 3d b3 91 a1 3d
       -0.077014364 -0.027500754 0.0794393 0.07889118
000370 d2 19 a6 bd ee 74 99 bc af d6 2d be 1c e6 91 3d
       -0.081103936 -0.018732514 -0.16976427 0.07123968
000380 6e 5b 39 be b3 22 61 be 60 7e 4d bd a4 72 0f 3e
       -0.18101284 -0.21985893 -0.05016935 0.14008576
000390 a2 62 74 3d 04 49 44 3e 0e f4 69 3c b1 c8 de 3d
       0.059664376 0.19168478 0.014279379 0.108781226
0003a0 30 db 4a 3e 33 48 80 be 4c 2d ff bd f4 f2 de 3b
       0.19810176 -0.25055084 -0.124598116 0.0068038646
0003b0 0d a3 cf 3c ea 53 41 bd 1e b8 fa 3d d1 60 e0 3c
       0.025346303 -0.047199167 0.12242149 0.027389916
0003c0 ca 3b c7 3d e9 52 82 3b 43 60 86 bd b2 22 a8 3d
       0.09728201 0.003977169 -0.06561329 0.082097426
0003d0 49 28 6e 3e 5e dd b9 bd 0e 19 e7 bd 2a f6 25 3e
       0.23257555 -0.090754256 -0.11284076 0.16207185
0003e0 ee 8b fe 3c a8 12 4e bd 7d 8d 73 3d f5 4f 51 bd
       0.031072583 -0.05031076 0.059461106 -0.051101644
0003f0 8b 93 d5 3d ae f1 f9 bd a2 a0 44 bd 68 e9 50 bd
       0.10428532 -0.122043 -0.048004754 -0.051003844

model.0.bias f4 [64]
000000 eb 5f a1 bd b8 6a 33 be 7a d3 62 be fa ec 07 be
       -0.07879623 -0.17521179 -0.22150984 -0.13273993
000010 eb ac 49 bb 11 51 f1 3c 26 d2 d4 bd c5 fd d2 bd
       -0.0030773233 0.0294576 -0.10391645 -0.10302309
000020 35 e9 7f be ab 18 af bd 47 24 70 bd cd 04 62 be
       -0.24991305 -0.08549627 -0.058628347 -0.22072144
000030 fc ef 27 be cc 53 21 3e 1c 7e 0c bd 25 3a 24 bd
       -0.1640014 0.15754622 -0.034299955 -0.040094513
000040 46 67 88 bd b3 d2 92 be 27 15 9e bc ac 75 0c 3e
       -0.06660323 -0.28676376 -0.019297196 0.13716763
000050 4f b2 95 be ff 44 7c be 5d 24 12 be a1 51 b2 bd
       -0.292376 -0.24635695 -0.14271684 -0.08706976
000060 9c ef 18 be 55 76 08 bd 2a 8c 69 bd 46 43 56 bc
       -0.14935154 -0.033315975 -0.057018436 -0.013077563
000070 82 73 00 bd c6 ed 7b be a3 fc 4f be 50 c8 90 3d
       -0.031360157 -0.24602422 -0.20311217 0.070694566
000080 7f 2d 31 bd 33 99 92 be 4e 83 87 3d a4 e4 08 be
       -0.04325628 -0.28632507 0.06616841 -0.1336847
000090 57 38 81 be 21 05 23 3d e3 fb 9f be 41 f4 9c be
       -0.25238296 0.039799813 -0.31246862 -0.306551
0000a0 4b 02 18 3e 19 26 06 3c b2 ff 3e bc bb 4a 44 3d
       0.14844625 0.008187794 -0.011657642 0.04792283
0000b0 cd 76 a0 3d 95 f9 b2 3d f6 2d 46 bd cf f7 2d bd
       0.078351595 0.0873901 -0.048383676 -0.042472657
0000c0 cf 89 4a be 71 6a 3e be 8d ca 38 39 35 5d 5c bc
       -0.19779132 -0.18595292 0.00017623063 -0.013449957
0000d0 9b 39 0a be 3e b6 70 be ab ed a5 3d 2e 3a 5d be
       -0.13498537 -0.2350702 0.08101972 -0.21604225
0000e0 25 c1 7d be a6 a3 89 be 60 3c 0a 3c 11 d2 87 be
       -0.2478071 -0.26882666 0.008437246 -0.26527455
0000f0 b0 f8 fa 3d ff 8d 0e bd 72 03 0a be 69 14 05 3e
       0.122544646 -0.034803387 -0.13477877 0.12996067

model.3.weight f4 [128, 64, 3, 3]
000000 91 e5 5a bd d9 92 d5 3c 23 90 96 bc a4 26 c5 bb
       -0.053441588 0.026070999 -0.018379277 -0.006016569
000010 de c9 35 3c c3 fe ba bd 2e ba 18 3d cf 43 6d 3d
       0.011095492 -0.09130623 0.03728693 0.057925995
000020 12 4b 86 bc f4 86 34 3d b4 e8 36 bd 68 20 8e 3c
       -0.016393218 0.044074014 -0.044655517 0.017349437
000030 61 6a 6c 3c eb f2 5b 3e e5 a8 97 3d b4 e4 9f bd
       0.01442966 0.21479385 0.07405261 -0.078072935
000040 38 6c 9f bd 8a e5 b6 bc 8d 1b 9b 3d 1b 95 ce bc
       -0.07784313 -0.02232625 0.07573614 -0.025217583
000050 3b 6d 82 3d af f5 1b 3c 25 7f aa 3d cd 5b 07 bd
       0.0636849 0.009519025 0.08325032 -0.033046532
000060 e4 e9 29 bd d2 69 8a 3b 2d bd b0 3c 69 87 93 3c
       -0.04148282 0.0042240405 0.021574581 0.018008905
000070 90 c4 e7 bc c4 9d 03 bd e2 a7 21 bd 73 83 ae 3d
       -0.02829197 -0.03213288 -0.039466746 0.08521166
000080 24 6b 11 bd 49 a5 2b bb a4 87 c6 bd 18 72 99 b8
       -0.035502568 -0.0026191047 -0.0969384 -7.31686e-05
000090 03 5e 61 3c 14 e4 d9 3d 1f 92 58 bd 75 a2 ef 3d
       0.013755324 0.106392056 -0.052873727 0.11700908
0000a0 2c 74 0a 3e 53 2a cf 3c 54 ab 62 3d 76 7b 50 3e
       0.13520879 0.025288736 0.055339172 0.20359597
0000b0 28 04 dd 3d e3 e8 20 bc 55 8c 17 3d 50 36 21 3d
       0.10791808 -0.0098211495 0.036999065 0.039358437
0000c0 5d c0 c8 bc 41 49 07 bd ed 33 ce bd 48 2d 1a 3c
       -0.024505788 -0.033028845 -0.10068498 0.00941021
0000d0 25 5a 13 bd 0f 4c f7 bc 41 81 ca bc 81 ca e0 3d
       -0.03597464 -0.030187635 -0.024719836 0.109761246
0000e0 83 1a 23 bd 4f 70 87 bb 1e 97 2f bd 86 89 3e bc
       -0.039820205 -0.0041332613 -0.042868726 -0.011629468
0000f0 7f 73 b8 bc 89 10 6a bc d2 d7 b3 3c 74 17 24 3d
       -0.02251601 -0.014286169 0.021953497 0.04006143
000100 92 e4 27 3d 39 4d 7a 3b d5 ae 2e bd b6 22 cb bd
       0.040989466 0.0038193 -0.0426472 -0.0991873
000110 f0 ba a2 3c 4f 12 9e bc 5b 3c 48 bd db 9f 92 bd
       0.01986453 -0.01929584 -0.048885684 -0.07159396
000120 2d 1b 1d 3c dd 31 20 bc e8 8b a3 3d 48 98 bf 3c
       0.009588999 -0.009777513 0.079856694 0.023388043
000130 9a 1b d4 3d 34 32 66 3c f7 4e 01 bd 82 72 2a 3d
       0.10356827 0.014050055 -0.031569447 0.04161311
000140 91 a7 a3 bd de 50 14 3d aa d6 21 3d b6 26 ec 3c
       -0.07990945 0.036209933 0.03951136 0.028827053
000150 f5 df b4 3b ce 9d b0 bd b6 db 23 3d 00 5e 3b bd
       0.005519862 -0.08623849 0.040004455 -0.045743942
000160 90 f1 4a bd 1c aa 2d bd 40 a4 02 bd 56 a8 12 bd
       -0.04954678 -0.042398557 -0.031894922 -0.03580507
000170 a3 55 45 bc b6 eb c0 bd 08 da 91 bd 99 3d 22 ba
       -0.012044343 -0.09419958 -0.07121664 -0.00061889883
000180 8d cd f2 bc 0f 93 91 bd f6 0a 57 3d 63 7a db bc
       -0.02963903 -0.07108127 0.052500688 -0.026791757
000190 6a 4b e1 bc 05 47 96 bc ad 61 cb 3a 46 c9 96 3d
       -0.02750178 -0.018344412 0.001551678 0.073626086
0001a0 be 42 fe bd 76 f0 0f 3d 9a 4d b1 bb 85 ca 3e 3b
       -0.12415074 0.03514143 -0.005410862 0.002911241
0001b0 79 50 28 3d f3 18 57 bc cb 0f 12 3d bf cd 61 3c
       0.04109237 -0.013128507 0.035659593 0.013781964
0001c0 45 34 77 bc 9d 28 e8 bd 9e 43 d9 3c dc 32 a1 3c
       -0.015088146 -0.11335871 0.0265215 0.019677572
0001d0 a4 80 83 3c 6a af 96 bd a6 2f 5c 3d 35 e5 63 bd
       0.016052552 -0.07357676 0.05375638 -0.05563851
0001e0 76 0d 7b 3d eb b2 3c be 03 bd 8b bd 9c 43 0a 3d
       0.061292134 -0.18427627 -0.068231605 0.033755884
0001f0 c9 29 43 bd e2 4e c4 bc 45 42 7f 3d 5d 95 fd 3c
       -0.04764727 -0.023963396 0.06231906 0.030955011
000200 db bf 48 bd 08 dc 82 bd 00 65 7d bd a1 b2 07 be
       -0.049011093 -0.06389624 -0.0618639 -0.13251735
000210 57 b7 2e 3d 81 89 ee bc 17 3f 06 bc ec 3d 0d 3d
       0.042655315 -0.029118301 -0.008193753 0.03448288
000220 27 5b 74 bc 29 9c 37 bb 79 6e 3b 3d 1a f8 50 3d
       -0.014914311 -0.0028016663 0.04575965 0.051017858
000230 a9 fa ba bb 93 1c c2 ba f0 c1 2c bd f5 a6 c4 3b
       -0.0057061506 -0.0014809541 -0.04217714 0.006001348
000240 99 00 25 bd 13 77 c7 bc 80 5f 75 bd ac fc 03 bd
       -0.040283773 -0.024348771 -0.05990553 -0.03222339
000250 d3 08 de bd c0 9a 47 bc a2 5a 2b bd 65 10 64 bd
       -0.10841527 -0.012182891 -0.04183448 -0.055679698
000260 9c 15 af bc 5d 3f 8c 3d eb 44 1b 3c 5b fb 54 3b
       -0.021372609 0.06848023 0.009476881 0.0032498452
000270 68 0c 20 be e3 4a 5e 3d 85 83 36 3d 75 7c 4b bd
       -0.15629733 0.054270636 0.04455902 -0.04967924
000280 41 e0 3b 3d 11 08 f3 3b ac 76 0f be 09 22 91 bc
       0.045868162 0.007416733 -0.14010113 -0.017716425
000290 b2 39 98 bc ce 96 e9 3a 36 30 a1 3c 25 cf ad 3c
       -0.018582199 0.0017821433 0.01967631 0.021216938
0002a0 c8 b2 8a 3c fe 9b 59 bd 2e 02 3a bd c7 50 65 3d
       0.016930953 -0.05312728 -0.045412235 0.05598524
0002b0 4c 4e 98 3c d6 73 17 3d 98 75 b4 3d ae b4 16 be
       0.018592022 0.036975704 0.08811492 -0.14717361
0002c0 8c 77 3e bd 3e 37 dc bb e3 57 04 bc 97 56 68 bc
       -0.046500728 -0.0067204526 -0.008077594 -0.014180801
0002d0 85 a5 78 bd 28 18 68 bc 73 68 31 bd 10 f7 00 bc
       -0.060704727 -0.014165916 -0.0433125 -0.007871404
0002e0 d2 87 80 3d 4c 70 c7 3c ed 87 e7 bc 3d bc 23 bc
       0.06275906 0.02434554 -0.028263057 -0.00999361
0002f0 86 de 12 bd 58 a4 cf bd af 0b 7d 3c 73 d4 67 bd
       -0.035856746 -0.10138768 0.01544468 -0.05659909
000300 9c 45 77 3c 01 3b 9e bc 10 27 74 bd 6c 28 c1 bc
       0.01509228 -0.019315245 -0.059607565 -0.023578845
000310 41 ab 09 3d 4c cd 67 b9 8f ca 93 bd 83 be c1 bc
       0.033610586 -0.00022106356 -0.07216369 -0.023650413
000320 9b ca 37 bc 22 a2 19 3c 14 ae 66 bc 03 05 82 3d
       -0.0112177385 0.009377034 -0.014079589 0.06348612
000330 df c1 b1 bc 8f 94 25 3d 19 c7 2d 3d 84 3d 7f bb
       -0.02169889 0.04042488 0.042426202 -0.0038946578
000340 00 b9 fb bc 4d ea 60 bd 8c 25 48 bc 73 61 9a 3c
       -0.030727863 -0.054910947 -0.012215983 0.018845296
000350 a3 a6 cb bd f4 65 bd bc ea db dc 3c 7f 95 40 bd
       -0.09943893 -0.023119904 0.026960332 -0.04701757
000360 2c 3f 84 3c bb 04 dd b9 1d 2f fb bc 95 89 65 bd
       0.016143404 -0.0004215593 -0.030662114 -0.05603941
000370 4c 6e 6c 3d 57 e6 e1 bd 8f bc a0 bc 76 ea df bd
       0.057722375 -0.11030262 -0.019621162 -0.10933392
000380 c5 46 78 3c ff e5 b9 bc 95 bf 94 bd e1 7d 6c bb
       0.0151535915 -0.022692678 -0.07263104 -0.0036085772
000390 07 65 9f bd 7e ec 69 be 72 6d d4 bd 98 0c 15 bd
       -0.07782941 -0.22844121 -0.103724375 -0.036388963
0003a0 30 37 ae 3c 6b 1e 07 3d 83 fd ea 3d 57 ea 38 3d
       0.02126655 0.032987993 0.11474135 0.04514536
0003b0 3a 18 4f bb 96 e1 35 3d 49 69 25 bb de f3 4f bd
       -0.0031600134 0.04440459 -0.0025239757 -0.05076968
0003c0 c7 c6 ff bb 23 e4 b2 3d 6b a2 cb 3c b0 89 ab 3d
       -0.0078056785 0.0873492 0.02485772 0.08375871
0003d0 a4 9d 8c bc e9 a7 20 bb 5c 1b d2 3b 7e 18 40 3c
       -0.017165013 -0.0024514145 0.006411953 0.011724589
0003e0 32 36 df bc 37 d3 8a 3c a1 4a 54 3d 6a 0a 05 3d
       -0.027247522 0.016946418 0.051828984 0.032480635
0003f0 75 3f 75 bc 98 e4 5d bd bb a0 9b 3b a0 ff fa 3c
       -0.014968743 -0.054173082 0.004749385 0.03063947

model.3.bias f4 [128]
000000 1c 23 c2 bd b2 60 04 bd 1c b6 b8 bb 60 cd 80 bd
       -0.09479353 -0.03231878 -0.0056369435 -0.06289172
000010 d3 82 0d bd 59 9e c7 bc 99 b3 47 bc 8a 5f 75 3a
       -0.03454859 -0.024367498 -0.0121888155 0.0009360245
000020 11 58 50 bd 9b ce 72 bd cb 74 1c bd ee 6e 35 bc
       -0.050865237 -0.059279066 -0.03819732 -0.011073811
000030 01 76 36 bc c5 c6 cc bd e4 2f 8c bc 6d 62 af 3b
       -0.011136533 -0.0999885 -0.01711268 0.0053523094
000040 5e d1 34 bd 8c 0a f0 bc 5a bc cc bd a1 c9 e1 3b
       -0.04414498 -0.029301904 -0.09996863 0.006890491
000050 cd 3d 3e bb 1d cc 92 bd 79 47 0e bd 72 15 96 bd
       -0.0029028535 -0.07167838 -0.03473613 -0.07328309
000060 72 0f 67 bd e5 c0 b2 bc b1 8f 45 bd c5 30 b9 bc
       -0.056411214 -0.021820495 -0.048232738 -0.022606263
000070 b4 d0 80 bd 5e 83 52 bd 9b 47 47 3c ea d4 e5 bc
       -0.06289807 -0.051394813 0.012163068 -0.028055627
000080 5d ff 7c bd 48 b0 f5 bc 56 52 bd bd 92 a6 dd bc
       -0.06176697 -0.029991284 -0.0924422 -0.027056966
000090 36 cf aa bd 29 76 fc bd 0c 54 5d bd 47 16 36 bd
       -0.083403036 -0.12327225 -0.05403523 -0.04445484
0000a0 77 92 6b bd 95 56 cf bd d3 04 5e bd 78 bc 65 bd
       -0.057512727 -0.10123936 -0.05420382 -0.05608794
0000b0 e7 10 22 bd 52 ba 33 bd 94 72 2d bd 4a fa 83 bd
       -0.0395669 -0.04387886 -0.0423456 -0.06444223
0000c0 e9 a4 fd bd 05 fb a0 bd ab 36 ce bd 66 fa 14 bd
       -0.1238497 -0.07860378 -0.10069021 -0.03637161
0000d0 86 62 81 3c 49 69 f2 bd ad 69 89 bd df e8 64 bd
       0.01579405 -0.11836488 -0.06709609 -0.055886146
0000e0 e2 83 27 bd ec 2a b5 bc 5a eb ef 3b d4 2f 9d bc
       -0.040897258 -0.022115193 0.0073217573 -0.019187845
0000f0 d9 f2 42 bc 52 37 8b bd 6a 15 92 bd ae cf 7f bd
       -0.01189872 -0.06797661 -0.07132991 -0.06245392
000100 d7 2a 64 bc 21 5b cc bc d2 d8 df bd c8 98 64 bd
       -0.013926229 -0.024945797 -0.10930027 -0.055809766
000110 39 5b 29 bd a3 dc ad bc 76 8a 97 bd b7 ea a4 bd
       -0.041346762 -0.021223372 -0.07399456 -0.08052581
000120 2b 83 7b bd 49 1e 31 bd 48 48 9c bd 12 f8 0d bd
       -0.06140439 -0.043241773 -0.07630974 -0.034660406
000130 a8 c3 cc bc da d8 1c bd 2d 7a c3 bd 30 d5 96 bd
       -0.02499564 -0.038292743 -0.095447876 -0.07364881
000140 12 88 7a bd 0e d8 63 bd b9 00 97 bd 21 9b a2 bd
       -0.061164923 -0.055625968 -0.07373185 -0.07939745
000150 6b f1 ba bd 46 d2 cd bd fa d5 cd bd 11 70 d0 bc
       -0.09128078 -0.10049872 -0.100505784 -0.025444062
000160 8b ad 7b bd 28 d4 c9 bd 4a 34 64 bd ad f2 15 bc
       -0.0614448 -0.09854919 -0.05571393 -0.009152097
000170 c8 50 68 bd 70 a9 96 bd 96 d9 8a bd 7b ee ec bd
       -0.056717664 -0.073565364 -0.067797825 -0.11568924
000180 67 2d 47 bd 89 0f 2e bd 9d 43 84 bd 8a 56 b1 bd
       -0.048627283 -0.042495284 -0.06458209 -0.08659084
000190 f1 37 25 bd 89 0a 3b bd 79 87 65 bc 57 98 b1 bc
       -0.040336553 -0.045664344 -0.01400935 -0.021679087
0001a0 49 80 24 bd ce c8 8d bd 2f a5 78 bd d2 8f c2 bd
       -0.040161405 -0.06923066 -0.060704406 -0.09500088
0001b0 94 5a 01 3d 52 2c 77 bc f4 f4 bb bc 41 82 47 bd
       0.031580523 -0.01508625 -0.022943951 -0.048708204
0001c0 ae d3 01 3d 18 dd 8e bd e6 22 23 bd 40 ac 88 bd
       0.031696014 -0.06975764 -0.039828204 -0.06673479
0001d0 74 e5 59 bd 70 93 9b bd 25 41 6d 3c d6 86 39 bd
       -0.05319734 -0.07596481 0.014480864 -0.045294605
0001e0 3d d4 f9 bd aa 18 e6 bc fc cb 91 bd 12 2c 8d bc
       -0.12198684 -0.028087933 -0.07118985 -0.017232928
0001f0 2e 02 9a bc f1 92 d7 bb 97 db 4c bd 53 83 93 bd
       -0.018799867 -0.006578796 -0.050014105 -0.072027825

model.6.weight f4 [128]
000000 83 11 86 3f ad fb 73 3f fe a3 6f 3f 92 84 77 3f
       1.0474094 0.953059 0.9360961 0.9668666
000010 10 e3 73 3f 87 b4 75 3f 01 45 75 3f fb a5 83 3f
       0.95268345 0.9597859 0.95808417 1.0285028
000020 37 15 87 3f 49 9d 89 3f d4 62 72 3f a4 24 78 3f
       1.0553349 1.0751125 0.9468205 0.9693091
000030 55 b4 7b 3f a8 dd 8f 3f be 44 7a 3f f6 04 7d 3f
       0.9832204 1.1239519 0.9776114 0.98835695
000040 05 ea 82 3f da cf 7d 3f e0 0b 82 3f f6 dc 71 3f
       1.0227667 0.9914528 1.0159874 0.94477785
000050 82 99 7f 3f 61 17 89 3f 14 4d 83 3f 74 aa 8d 3f
       0.9984361 1.071026 1.0257897 1.1067643
000060 5d 8f 7e 3f 8a 77 7b 3f 26 81 73 3f ab ff 74 3f
       0.99437505 0.9822928 0.9511894 0.9570262
000070 71 1d 83 3f e8 e5 82 3f ed 9f 85 3f 0f 32 84 3f
       1.024336 1.0226412 1.043943 1.0327777
000080 f2 3f 74 3f 5c 2f 75 3f 85 2e 8e 3f 51 11 80 3f
       0.9541007 0.9577539 1.1107947 1.0005285
000090 8a 82 80 3f 98 7e 81 3f b2 d5 8c 3f b0 6b 84 3f
       1.0039837 1.0116758 1.1002715 1.0345364
0000a0 4c b2 7d 3f 51 d7 87 3f 93 71 71 3f 1d 6f 6d 3f
       0.99100184 1.0612584 0.94313926 0.9274767
0000b0 ca 1e 6a 3f 8e 36 80 3f e1 79 82 3f 42 07 6f 3f
       0.9145323 1.0016649 1.0193444 0.9337045
0000c0 a5 9a 87 3f 77 ce 7f 3f 3e 85 8c 3f a3 2c 86 3f
       1.0594069 0.99924415 1.0978162 1.0482372
0000d0 1c 7b 84 3f a0 73 7f 3f cc 1b 84 3f 7d cd 69 3f
       1.035007 0.99785805 1.0320983 0.91329175
0000e0 42 c9 7f 3f 0b 47 7e 3f 44 44 78 3f a4 c0 82 3f
       0.9991647 0.9932715 0.96979165 1.0215039
0000f0 93 26 89 3f f7 7b 89 3f b5 8d 81 3f 7c 28 80 3f
       1.0714897 1.0740956 1.012137 1.0012355
000100 db e6 7f 3f b1 72 83 3f 93 4d 86 3f 3f 61 85 3f
       0.9996163 1.0269376 1.0492424 1.0420302
000110 a8 79 7f 3f 64 98 86 3f 6f b3 82 3f 89 7d 7a 3f
       0.9979501 1.0515256 1.0211009 0.978478
000120 7e e7 81 3f 66 f7 87 3f a1 d0 88 3f ac 70 77 3f
       1.0148771 1.0622375 1.0688668 0.966563
000130 3a c1 71 3f c3 74 83 3f 46 a5 83 3f bf 66 84 3f
       0.94435465 1.0270008 1.0284812 1.0343856
000140 ca cd 82 3f 91 83 77 3f 1e 8d 89 3f 97 ea 84 3f
       1.0219052 0.9668513 1.074619 1.0384091
000150 c7 55 7e 3f 34 9f 86 3f 8f 56 86 3f de 14 6f 3f
       0.99349636 1.0517335 1.0495166 0.93391216
000160 5b 70 79 3f d7 c4 8e 3f b1 21 7a 3f 0d 69 76 3f
       0.97437066 1.1153821 0.9770766 0.96254045
000170 7a c0 8c 3f dd 79 7e 3f a0 99 7f 3f e4 81 89 3f
       1.0996239 0.994047 0.9984379 1.0742764
000180 97 4b 7e 3f 76 72 7f 3f 7d 7b 76 3f 36 f4 84 3f
       0.9933409 0.9978403 0.9628218 1.0387027
000190 f8 6e 75 3f 9e 2a 7a 3f ed 25 83 3f 50 f5 7f 3f
       0.9587245 0.9772128 1.0245949 0.9998369
0001a0 d8 27 76 3f 20 a9 88 3f 05 4f 78 3f d0 f3 81 3f
       0.96154547 1.0676613 0.96995574 1.0152531
0001b0 8f 3a 82 3f 17 cd 6c 3f 7a d5 89 3f 58 d8 81 3f
       1.0174121 0.9250044 1.0768273 1.0144148
0001c0 b1 4b 79 3f d9 ef 78 3f 81 df 86 3f 6a fa 81 3f
       0.9738112 0.9724098 1.0536958 1.0154545
0001d0 11 e9 81 3f a6 d1 77 3f c8 f3 80 3f 81 21 81 3f
       1.0149251 0.96804273 1.0074396 1.008835
0001e0 1c c9 83 3f d0 46 7e 3f ac 04 84 3f 19 34 83 3f
       1.0295749 0.993268 1.0313926 1.0250274
0001f0 f6 db 76 3f 85 10 74 3f 47 86 76 3f 61 dc 89 3f
       0.96429384 0.95337707 0.9629864 1.0770379

model.6.bias f4 [128]
000000 b4 34 c3 3b 04 0d 03 bb 30 44 30 3d e9 ac 84 3a
       0.0059572104 -0.0019996772 0.04303378 0.0010122332
000010 7a 01 2b 3c 0b dd 0a 3b da 8d cb 3c 09 be ef 3c
       0.010437364 0.002118888 0.024847914 0.02926542
000020 98 b8 71 3b ca 1f 22 bb c0 27 db bb dc 27 93 3c
       0.0036883708 -0.0024738186 -0.006688088 0.017963342
000030 17 3c 95 bb de fe a0 3c 56 af e3 3b ca 92 f5 3c
       -0.0045542824 0.01965278 0.006948392 0.029977221
000040 48 8b 93 bb 09 ef eb bb 63 0e f5 3b fb b1 2d 3c
       -0.0045026876 -0.007200126 0.0074785217 0.010601516
000050 fc 60 65 3c 28 85 14 3c cd 8d ce bb d6 7c b0 3b
       0.014000174 0.00906495 -0.006303525 0.0053859754
000060 f4 70 21 3c 04 0c 29 bc 3b de de 3b 3c d8 36 bc
       0.00985359 -0.010317806 0.0068013943 -0.011159953
000070 80 92 4d 3c 40 dd 4c bc ab 13 d3 bb 46 ef 11 3d
       0.012547135 -0.012503922 -0.0064415536 0.03562858
000080 37 53 5d 3c 60 2e 57 39 a7 c4 84 3b 89 25 6f 3c
       0.0135086095 0.00020521274 0.004051763 0.014596351
000090 ce 1c d3 3b a8 74 b4 3b 1f bb 82 3c 7e 3b d4 3b
       0.006442643 0.0055070706 0.015958367 0.0064768186
0000a0 e5 b4 11 3c 6d 19 0f 3c 64 01 e0 3b 63 e0 de bc
       0.008893226 0.008734089 0.0068361033 -0.027206605
0000b0 6e e4 b7 3b b1 e1 44 38 9c d4 ef bb 79 29 30 bc
       0.0056119477 4.6940233e-05 -0.007319046 -0.010752075
0000c0 92 7f f0 3b 13 7d ba 3b a1 87 86 ba 71 08 7a 3c
       0.0073394263 0.0056911795 -0.0010263809 0.015260802
0000d0 19 af 43 3d a4 cd 9b bb 1c d9 e9 3a 63 97 d7 3a
       0.047774408 -0.004754739 0.0017841193 0.0016448315
0000e0 c3 7c a7 ba 5c d1 1d 3c f4 c4 26 3b 24 28 b1 3c
       -0.0012778271 0.009632435 0.0025446983 0.021625586
0000f0 b0 24 3d 3b 2f 2b 9d 3c 7c b2 da bb 1a 8a ed 3b
       0.0028860979 0.01918563 -0.006674109 0.007249129
000100 3b da b8 3b 71 a7 b0 3c 7e 83 e3 3b 43 6b 0c 3c
       0.0056412495 0.021564217 0.0069431653 0.008570495
000110 21 f6 97 3c b0 65 f9 3b 19 aa d6 bb e5 bd 75 3c
       0.01854998 0.007610999 -0.006551039 0.014998888
000120 8f 97 1a 3c 24 c3 1e 3c 65 01 80 bb bb 94 03 3d
       0.009435548 0.00969008 -0.0039064162 0.032124262
000130 bc 5c fd 3b 51 88 67 3c 3a 87 51 3b 99 eb 6c bb
       0.007732002 0.014131621 0.003197147 -0.003615117
000140 b6 88 18 3c 48 ad 11 bc 8a 81 95 3b 4b 3d ac bb
       0.009309938 -0.008891411 0.0045625614 -0.00525633
000150 f9 7c b2 3b 66 09 6e 3c 42 06 e8 bb 37 03 d5 3c
       0.005447027 0.014528608 -0.007080824 0.02600251
000160 2a e7 74 3c 3e 1c 90 3c 68 a5 16 3c e5 24 11 3c
       0.014947692 0.017591592 0.009194709 0.008858894
000170 67 14 e6 3b 1a 22 18 bc 18 d6 a4 bb 5a 19 1d bc
       0.007021475 -0.009285474 -0.005030405 -0.009588564
000180 3f d5 44 bb e9 9e 3c 3c 23 f0 95 bb ca c2 99 bb
       -0.003003433 0.0115124965 -0.0045757457 -0.00469241
000190 78 ce e5 3b 51 a8 c9 3c 95 1e 3e 3c d5 01 1c 3b
       0.0070131384 0.024616392 0.011603971 0.0023804803
0001a0 e3 96 6e bc 10 f3 66 3b 9f b7 5d 3d f9 a8 96 b9
       -0.014562341 0.0035240091 0.054130193 -0.00028736124
0001b0 08 6b 25 38 ff 17 d5 3b f0 71 e4 3c 50 d1 13 3c
       3.9438746e-05 0.0065031047 0.02788636 0.009022072
0001c0 fc 12 88 bb de 5a bd 3c 30 8f cc 3a c1 a8 b5 3c
       -0.0041526537 0.023114618 0.0015606638 0.022175195
0001d0 82 08 43 bb a9 f6 37 bc c6 e4 2d 3d ef d1 de bb
       -0.002975971 -0.011228242 0.042454503 -0.0067999284
0001e0 92 47 8d bb e9 3f 27 3c ed 8c ac bb 6f a7 19 3c
       -0.0043115104 0.010208108 -0.005265823 0.009378298
0001f0 3d e5 83 3a 7e af 0c 3b 08 ba e2 b9 03 d2 f0 3b
       0.0010062825 0.0021466906 -0.00043244683 0.007349254

model.6.running_mean f4 [128]
000000 5f f7 23 bd 03 cc 75 bc cb f7 da bc 67 96 9c bc
       -0.040030833 -0.015002253 -0.026729485 -0.019114686
000010 a2 92 c9 bc 1d 79 76 bc 90 b4 57 bc 27 50 0b bd
       -0.024606053 -0.015043524 -0.013165608 -0.034011986
000020 3f 9f 28 3c 01 61 71 bd 12 9e f8 bc e0 9c 3d bc
       0.0102918735 -0.0589304 -0.030348811 -0.011573046
000030 54 0d d4 bc 9f 6f 23 bd a2 be bf bc 04 ab 09 bb
       -0.025885262 -0.039901372 -0.02340633 -0.0021006474
000040 9b d3 ef bc c5 59 c0 bb 46 06 06 bd 30 ae 3c 3d
       -0.029275706 -0.0058700764 -0.032720827 0.046064556
000050 7b 3b a1 bc 95 db a8 bd b1 5c b9 bc d2 a3 01 bc
       -0.019681683 -0.08245007 -0.022627207 -0.007912593
000060 27 18 dc bc 6d 9c fb bc 1d 2a 8d bc 84 48 61 3d
       -0.026866985 -0.030714238 -0.017231995 0.055000797
000070 71 51 47 bd dd 5d 3a bd 81 e4 a3 3c 44 9a f2 3c
       -0.048661653 -0.04549967 0.02000642 0.029614575
000080 db a1 24 bd 0c 66 29 bd b1 55 c0 bd 49 41 28 bd
       -0.04019342 -0.041357085 -0.09391344 -0.041077886
000090 98 2d ab bc 54 8f 95 bd 0e 70 2f bd 2c e1 12 bd
       -0.020895764 -0.07302728 -0.042831473 -0.035859272
0000a0 f9 fc ec ba 9c c5 44 bd 47 84 3d bb dc 54 ce bc
       -0.0018080763 -0.048040017 -0.0028917955 -0.025186948
0000b0 95 2a 57 3d 40 79 87 bc 6d 2c 06 bd 0f c9 56 bc
       0.052530844 -0.016537309 -0.03275721 -0.01310946
0000c0 79 31 78 bd 86 d8 ae bc d0 d9 56 bd 44 a3 0e bd
       -0.060594056 -0.02134348 -0.052453816 -0.03482367
0000d0 86 cc b0 bc b9 76 80 bd 22 f4 cc bc bb 66 40 bd
       -0.0215819 -0.062726445 -0.025018755 -0.04697297
0000e0 74 80 0c bd f0 e7 e0 39 1b 10 10 3d fd 6a 5b bb
       -0.03430219 0.00042897416 0.03517161 -0.0033480518
0000f0 9f 46 77 bd 5b 89 4e bd f2 34 0b bd de 6d 18 bd
       -0.060370084 -0.05042396 -0.03398604 -0.037214153
000100 50 5b c6 3c b9 1d 26 bd 5c e6 29 bd fd bb 36 bd
       0.024213463 -0.04055569 -0.041479453 -0.044612873
000110 66 4a ab bc 04 89 a7 bc 9e b6 98 3a fd 54 3f bd
       -0.0209095 -0.020451076 0.0011651104 -0.04671191
000120 2b c2 e2 bc 79 02 37 bc c8 58 46 bd 03 87 9f bc
       -0.027680477 -0.011170023 -0.048424512 -0.019473558
000130 47 c4 07 3d 70 ac ad 3d 65 75 43 bd 40 24 d7 bc
       0.03314617 0.084801555 -0.047719378 -0.026262403
000140 c4 c1 11 bd 18 1d 08 bb 61 8d 6f bd e1 2e e6 bc
       -0.03558518 -0.0020769294 -0.05848444 -0.028098525
000150 0c 96 db bc cd 1c 75 bd 2f 36 8b bd cd 37 08 3a
       -0.026804946 -0.05984192 -0.06797444 0.0005196303
000160 d6 20 f2 bc 51 43 9b bd 9c 68 d4 bc ca e9 3a bc
       -0.029556673 -0.07581199 -0.025928788 -0.011408279
000170 f6 79 fd bc 94 dc 38 bd 0f 26 5f bc 87 22 89 bd
       -0.030941945 -0.045132235 -0.013619914 -0.06696039
000180 54 b5 a2 bc dc 2f 47 bc 42 18 9d ba d0 02 78 bd
       -0.019861855 -0.012157407 -0.0011985379 -0.060549557
000190 8f ab d0 ba 08 0a 0b bc 49 1a b4 bc 36 81 75 bc
       -0.0015920269 -0.008486278 -0.02198519 -0.01498442
0001a0 66 96 99 3d 7f ed 37 bc 9c ce 31 bd 96 da 53 bd
       0.07499389 -0.011226057 -0.04340993 -0.05172213
0001b0 37 2b 51 3c 62 77 1b bc 71 42 e3 bc 6b 4d 08 bd
       0.012766651 -0.009488912 -0.027741643 -0.033276957
0001c0 cb 6b 96 3d 3b 01 7e ba 61 8e 12 bd 98 83 1e bc
       0.073447786 -0.00096895144 -0.035780314 -0.009674929
0001d0 a9 60 5d bd d1 36 bc bc fd cc 63 bc 6f 7c 46 3a
       -0.05404726 -0.022975357 -0.0139038535 0.00075716426
0001e0 60 3b 9a bd 71 81 35 bc 00 13 31 bd b8 11 8a bc
       -0.07530856 -0.0110782245 -0.04323101 -0.016854152
0001f0 e9 13 ee 39 ad 2a 9b bc ae 66 6d bc 53 2b fe bc
       0.00045409732 -0.018941248 -0.014489813 -0.031026518

model.6.running_var f4 [128]
000000 bc 60 17 3b 41 92 d1 3b 4e 9a 95 3b fe ce 0a 3b
       0.002309843 0.0063956087 0.0045655137 0.0021180506
000010 f5 4f fe 3a e9 2d 6b 3b 12 7e 9d 3b f2 be 13 3b
       0.0019402491 0.003588552 0.0048062885 0.0022544232
000020 75 36 66 3c ec c6 5a 3b 44 44 1d 3b 37 e3 0b 3c
       0.0140510695 0.0033382727 0.0023996988 0.008538059
000030 19 61 8f 3b 54 ef 7b 3b 08 d7 0a 3b 0c e5 0e 3c
       0.0043755886 0.0038442211 0.0021185298 0.008721601
000040 5b f4 87 3b ee 46 a3 3b 7b 50 61 3b 78 ea da 3c
       0.0041490025 0.0049828207 0.0034380245 0.026723132
000050 29 f9 32 3b c2 64 d6 3b d9 bf 8a 3b 08 e8 a7 3c
       0.0027309156 0.006542773 0.004234296 0.020496383
000060 50 3e 23 3b 16 f4 87 3b fd 26 14 3b 6a 37 77 3c
       0.0024908967 0.0041489704 0.0022606247 0.015088895
000070 2d 14 9d 3b e5 ee 34 3b 85 3d 90 3b 1b 37 81 3c
       0.004793665 0.0027608213 0.004401865 0.015773347
000080 ee ce 15 3b 7b c1 17 3b c3 9d ea 3b 23 69 03 3b
       0.0022858935 0.0023156095 0.00715992 0.002005168
000090 5c 7c d2 3b de 83 80 3b 68 64 06 3b fc da e2 3a
       0.006423516 0.00392197 0.0020506624 0.0017307694
0000a0 6d c0 4d 3c dc 5f af 3b 54 ec d2 3b 43 2a 28 3b
       0.012558085 0.0053520035 0.006436864 0.0025659956
0000b0 27 54 88 3c 18 59 98 3b b5 e8 2b 3b 60 0c 48 3b
       0.01664169 0.0046492927 0.0026231233 0.0030524954
0000c0 01 14 f4 3b df 7a 35 3b f8 fe 8a 3b 58 24 4a 3b
       0.0074486737 0.0027691645 0.0042418204 0.0030844416
0000d0 ea 50 3b 3c 85 86 29 3b 16 69 04 3c 7a a1 eb 3a
       0.011432866 0.0025867533 0.008081695 0.0017977201
0000e0 3d b3 24 3b ed 18 fe 3b c8 a3 de 3c 8e 96 fb 3b
       0.0025131248 0.007754436 0.027177706 0.0076778596
0000f0 c0 ae d2 3b 0b f4 11 3b 3e e1 3c 3b 97 98 7d 3b
       0.006429523 0.0022270705 0.0028820778 0.0038695687
000100 d4 81 48 3c ba a4 3d 3b 73 7d 20 3b 4a ad a4 3b
       0.012237985 0.0028937296 0.0024488836 0.0050255405
000110 ff 82 53 3b df b4 0f 3c 97 58 ca 3b ca 74 72 3b
       0.0032274125 0.00877115 0.0061751115 0.0036995881
000120 17 8a f3 3a a2 e2 55 3c a0 74 22 3b d3 0c 1d 3b
       0.0018580583 0.013054522 0.0024788752 0.0023963943
000130 61 26 fc 3b 18 74 41 3d 14 cc 8a 3b a4 37 1f 3b
       0.007695005 0.047229856 0.004235754 0.002429464
000140 d3 49 38 3b cc ad 54 3c 2a 74 a5 3b b9 05 01 3b
       0.0028120175 0.0129808895 0.005049248 0.001968725
000150 5b 1e 22 3b 4f 84 93 3b cf 3a 4e 3b 76 73 93 3b
       0.0024737332 0.0045018564 0.0031468158 0.004499848
000160 7e 0a 16 3b 87 de 90 3b 2a 7d 07 3b 12 f7 68 3b
       0.0022894437 0.0044210586 0.0020673969 0.0035547656
000170 51 aa 85 3b 7c 31 58 3b 40 67 71 3c ed 52 52 3b
       0.004079141 0.003298848 0.014734089 0.0032092885
000180 23 1a 78 3b 02 71 7f 3b c5 cf f1 3b 08 e6 b2 3b
       0.0037857376 0.003897727 0.0073795044 0.005459551
000190 74 0d 38 3b fa 1d 62 3b af 68 a1 3b be e1 09 3c
       0.002808419 0.003450273 0.0049258093 0.008415638
0001a0 93 39 b1 3c 40 85 b2 3b ef 9e 83 3b 74 a5 eb 3b
       0.021633899 0.0054480135 0.004016749 0.0071913544
0001b0 18 0f c3 3b 5d 0b 41 3b bc b3 e9 3a 10 54 ba 3b
       0.005952727 0.0029456236 0.0017830054 0.0056862906
0001c0 0a 64 8c 3c 1a 8c b6 3b 9b 32 c8 3b 18 c6 e1 3b
       0.017137546 0.0055709006 0.0061095483 0.0068900697
0001d0 8f 2e 17 3b 8e 87 40 3b f0 6e a3 3b 8e 27 f7 3b
       0.0023068523 0.0029377672 0.00498759 0.007542557
0001e0 ba e7 9f 3b 82 54 9d 3b f6 fc 8b 3b 3d 8f 83 3b
       0.004879919 0.004801334 0.0042720987 0.004014878
0001f0 49 2c fa 3b 10 18 b9 3b b5 ed 15 3c a0 b6 1c 3b
       0.0076346737 0.0056486204 0.009150912 0.0023912564

adv_layer.0.weight f4 [1, 512]
000000 c1 a2 d5 3d bf f0 c3 bd 29 03 ac bc 97 8b 80 bc
       0.104314335 -0.09567403 -0.0209976 -0.015691562
000010 fa a8 bd 39 08 40 59 3d bc 36 21 bc 37 8f b2 bc
       0.00036174787 0.05303958 -0.00983971 -0.021796806
000020 c2 29 d2 bc 16 07 c1 bc 86 3e 03 3c 1f 89 8d 3c
       -0.025654677 -0.02356295 0.008010512 0.017277298
000030 6d 24 1b bd 86 76 6a 3c c1 1d a4 bc a4 74 ae 3b
       -0.037876535 0.014310485 -0.020033719 0.0053239632
000040 0f b9 15 3d 12 00 1f bd ae f0 c1 b9 b3 6c a7 ba
       0.03655344 -0.038818426 -0.0003699115 -0.0012773484
000050 32 6d 3c 3b c7 8c a2 bc b8 4c 58 bd d8 94 a5 bc
       0.002875161 -0.019842518 -0.05280754 -0.020212576
000060 51 d2 15 3d b6 f4 66 bc eb 53 42 bd eb 6a 93 3c
       0.036577526 -0.01409643 -0.04744331 0.017995318
000070 73 60 d1 3d 3b 89 3c bd 08 e5 3d bd e4 3f e5 bb
       0.10223474 -0.04602931 -0.046361 -0.0069961417
000080 f8 60 e6 bd ab 2f 3b bc 88 88 da 3a a6 ab 81 3c
       -0.11248964 -0.011424939 0.001667277 0.015828919
000090 76 ba fc bb d2 9b dc 3d 57 dd d1 bd a9 3f 89 bc
       -0.0077126576 0.10771908 -0.10247295 -0.016753988
0000a0 16 27 49 bb 46 b0 a5 bb 91 ce e6 bb bd a9 06 3d
       -0.0030693463 -0.005056414 -0.0070436676 0.03287672
0000b0 69 72 24 3b ee c4 42 bd 73 06 1c 3d 38 27 22 3d
       0.0025092608 -0.047551088 0.038092088 0.039588183
0000c0 9f 4f f2 3c 93 58 31 3d 15 89 d5 bb 9a 88 bd bc
       0.029578982 0.04329736 -0.0065165856 -0.023136426
0000d0 10 21 e9 bd ce 5e 13 3e 6d f0 08 be 34 13 ed bc
       -0.11383259 0.14391634 -0.13372965 -0.02893982
0000e0 22 32 22 3d b4 74 2c bd 81 75 07 bd 0d 46 2b bd
       0.03959859 -0.042103484 -0.033071045 -0.041814853
0000f0 61 33 99 bd 0c 99 7a 3d c7 a1 ea 3c 35 ee 70 3b
       -0.07480503 0.061181113 0.028641595 0.0036763076
000100 24 9c 23 3d 07 86 8f bd 05 14 39 3d 9a 4d e6 3c
       0.03994383 -0.070079856 0.045185108 0.028113175
000110 07 d7 3b bd f6 f1 70 3d a1 14 0f 3d b6 4e f7 3c
       -0.045859363 0.058824502 0.034931783 0.0301889
000120 49 6e 72 bd 70 d2 e4 3c 50 8b 9d bd 9a 5f da 3c
       -0.059187207 0.027932376 -0.076925874 0.026656915
000130 be 95 55 3b 68 0f 15 bb cd 02 69 bd 51 3e be ba
       0.0032590474 -0.0022744779 -0.056887437 -0.0014514421
000140 34 98 42 bd d3 12 e3 bc 76 02 1b 3d 94 77 7d bc
       -0.047508433 -0.027718937 0.037844144 -0.015470404
000150 38 e9 6e bc 1a 36 e7 bc c6 cd ba bd 78 5a 83 3d
       -0.014581971 -0.02822404 -0.091212794 0.0641374
000160 70 84 79 bc bc 54 09 3d f8 51 ce bd c1 14 99 bc
       -0.0152293295 0.033528075 -0.10074228 -0.018686654
000170 3a 42 2b bd 65 d8 1d be 8b f7 4e ba bc cb 8b 3d
       -0.041811205 -0.15414579 -0.0007895163 0.068259686
000180 09 82 25 bd af 3f 1b bd 1f c0 76 3d 0b 39 e2 3c
       -0.040407214 -0.03790253 0.060241815 0.02761509
000190 63 37 22 3d 28 a8 08 bc f2 e5 f3 3c 82 e7 c8 3c
       0.039603602 -0.008340873 0.029772732 0.024524454
0001a0 bf 16 73 bd 41 c2 80 3c 22 f7 59 b9 11 27 1f bc
       -0.059347864 0.015717627 -0.00020786797 -0.009713904
0001b0 5a 71 5c bd 63 4c cb 3b e6 9a a8 3c a9 8d 68 3a
       -0.053819038 0.0062041744 0.020581674 0.00088712067
0001c0 52 1a c9 bd 73 3e 7f bc e5 b6 5f bc f2 21 89 3d
       -0.09819473 -0.015578854 -0.013654445 0.06695928
0001d0 7e 3d 9b bd 32 92 13 bd 92 ec 79 bc f9 d3 b9 3d
       -0.07580088 -0.036028095 -0.015254157 0.09073634
0001e0 73 09 58 3d a1 d7 dc bd 58 7f 04 3d 85 22 72 3b
       0.052743386 -0.107833154 0.032348007 0.0036946845
0001f0 16 4f 06 3d f9 9d da bd 21 ee a4 bc 1a d4 28 bc
       0.032790266 -0.10674662 -0.02013308 -0.010304475
000200 d8 95 a9 bc 86 f4 f0 bb 9e 4d 90 bc eb 8b dd 3c
       -0.020701334 -0.007353368 -0.017615136 0.027044257
000210 98 0e 49 3d ca 56 1e bd 17 29 17 3b 2f da 3c 3c
       0.049086183 -0.038656987 0.0023065263 0.011526628
000220 c8 09 89 bd ff 05 89 bd ce 97 6b bd 5c 3d b7 3d
       -0.06691319 -0.06690597 -0.05751782 0.0894725
000230 e2 ad 77 3d b6 04 88 bd 79 36 eb bc 34 47 a8 3c
       0.060468562 -0.066415235 -0.028712498 0.020541765
000240 6b f6 7d 3d 5a 0c a8 bc 6c 9c 5f bd 8e a0 56 3b
       0.06200258 -0.020513702 -0.054592535 0.0032749507
000250 ed 69 1b 3d 0e c7 42 3d d5 f4 dd bc e0 35 b7 bc
       0.037942816 0.047553115 -0.027094284 -0.022364557
000260 cf b8 07 3e fd 3a e2 bd 68 f4 88 bc 89 56 bc ba
       0.13254093 -0.11046407 -0.016718104 -0.0014369051
000270 60 0b 73 bd f6 52 a1 3d 06 33 08 bd 09 cc 1b bc
       -0.05933702 0.07877152 -0.033251785 -0.009509095
000280 18 70 b1 3c 4e 40 d4 bd fd 23 c8 bb cb ac 9b 3c
       0.021659896 -0.10363828 -0.0061078058 0.019003293
000290 74 f4 e2 3d 7f 96 85 3d 6f 93 5a bd e8 d9 a3 bd
       0.11081782 0.065228455 -0.05336326 -0.08000547
0002a0 02 78 46 bb dc b3 9d bc 39 12 dd bb e0 d1 1e 3d
       -0.0030283933 -0.019250803 -0.006746557 0.03877437
0002b0 38 48 55 3b ce 30 d8 3b 66 30 3e 3c 5e dd f2 bc
       0.0032544266 0.006597615 0.011608219 -0.029646572
0002c0 a6 4d b7 bc 32 ed 47 3b 11 bc b2 3b ef 6b 05 bc
       -0.022375893 0.003050637 0.005454548 -0.008143409
0002d0 94 c1 95 3d 7f 4f da bc 9e c0 99 bc 9d 0b a8 3c
       0.07312313 -0.026649235 -0.018768605 0.02051335
0002e0 a0 45 85 3d 12 65 95 bd 91 d3 1e 3c d2 96 36 3d
       0.065074205 -0.07294668 0.009693996 0.044577427
0002f0 66 d9 11 3d 51 f8 fd bc d0 90 59 3a 7a 05 42 ba
       0.035607718 -0.031002196 0.0008299472 -0.0007401329
000300 e0 2f d7 3d a0 d7 07 bd 6f 39 54 3d a5 d9 30 bd
       0.10507178 -0.03316462 0.051812585 -0.043176312
000310 58 c4 a4 bd 83 1e 48 3d ff 32 03 bd 71 1f 6e bc
       -0.08045262 0.048857223 -0.032031056 -0.014533863
000320 a5 99 e1 3d 9d 7d 71 bd 7c f3 11 3e d3 1c 35 bd
       0.110156335 -0.058957685 0.14253038 -0.044216942
000330 a4 8b 85 3b 78 1f 92 3d 58 b5 74 bd c4 01 5d bd
       0.0040754844 0.071349084 -0.059743255 -0.053956762
000340 19 98 d9 bd 58 53 e6 3c 8b bc 00 3d ea 2d 31 3d
       -0.106247135 0.028115913 0.03142981 0.043256678
000350 f1 fe 6b bd 38 b3 83 bc c4 f5 a0 3d 7b cb 52 bb
       -0.057616178 -0.01607667 0.07859376 -0.003216474
000360 cf 2f d2 3b 9d 0b 89 3d 88 38 eb 3c af 0e 4f bd
       0.0064143906 0.06691668 0.02871348 -0.050551113
000370 c4 7a 6b 3a d3 92 fb bc a0 e8 03 3c a1 41 8d bb
       0.0008982832 -0.03070966 0.008051068 -0.004310802
000380 61 13 b5 3c a6 07 7a bd c4 bc 84 3c cc a3 eb 3c
       0.022103967 -0.06104245 0.016203292 0.028764628
000390 c7 84 5e 3d 84 46 22 bd 09 cd c2 3a 95 82 e6 3c
       0.054325845 -0.03961803 0.0014862131 0.028138438
0003a0 06 c1 87 3c 2e 64 b7 3c b2 11 20 3d 8f 1e 84 bb
       0.016571533 0.022386637 0.039079376 -0.004031963
0003b0 f3 ec d5 bd b7 7c 1b 3b 6b 14 77 3c 98 00 0a bd
       -0.10445585 0.002372546 0.015080552 -0.033691972
0003c0 a7 c4 b6 3d 4b ed 25 3d 0c 54 aa 3d fd e1 9f bd
       0.08924227 0.040509503 0.08316812 -0.07806776
0003d0 b3 1a 04 3d ef e5 b2 3d 17 e6 8f bd 2c 68 b8 bd
       0.032252025 0.087352626 -0.07026308 -0.09004244
0003e0 62 13 8a bd b2 f8 7f 3d 21 f4 13 3c 18 21 31 bc
       -0.06741978 0.062493034 0.009030373 -0.010811113
0003f0 3f 4b 86 bd c7 ed 52 3d b8 bd 83 bd 74 ce d5 3c
       -0.06557321 0.051496293 -0.0643267 0.026099421
