crucial_checkpoints/discriminator_epoch_49_8x8.pth (torch, 25395 bytes, 3 tensors)

model.0.weight f4 [128, 3, 3, 3]
0	0x3cc29e9d	0.023757273
1	0xbcec4b8a	-0.028844614
2	0xbc794e0b	-0.015216361
3	0xbb95370b	-0.004553681
4	0xbd273e82	-0.040831096
5	0x3c0505e6	0.008119082
6	0xbd10e9e2	-0.035379298
7	0x3b8015aa	0.0039088326
8	0xb90d61a4	-0.00013483182
9	0x3bdd951b	0.0067621595
10	0x3d276130	0.04086417
11	0xbd155b3b	-0.036463957
12	0xbc0b6c72	-0.008509742
13	0xbc6b32ee	-0.014355404
14	0x3d1852a5	0.03718819
15	0x3d0c8200	0.034303665
16	0xbd07e789	-0.033179794
17	0x3b44a90c	0.0030007986
18	0x3d71edf7	0.05906483
19	0x3d9c42ab	0.076299034
20	0x3bf99b9c	0.007617427
21	0x3b6086d6	0.0034260056
22	0x3d2259ee	0.039636545
23	0x3d288df6	0.04115101
24	0x3d8c6b55	0.068564095
25	0x3d3062c5	0.043062944
26	0x3d7e6071	0.062103692
27	0xbe189b66	-0.1490303
28	0xbddfd3b6	-0.109290525
29	0xbde2138c	-0.110388845
30	0x3c55ee23	0.0130572645
31	0x3c0fa9b1	0.008768485
32	0xbbe3ff43	-0.00695792
33	0xbd79d49d	-0.06099378
34	0xbbb9158d	-0.005648321
35	0xbc57c4e4	-0.013169501
36	0xbdaf5b2b	-0.08562311
37	0xbbb7e04a	-0.005611454
38	0xbd8e9f62	-0.069639936
39	0x3d17a238	0.03701994
40	0x3c338bd6	0.010958632
41	0x3c4e35e8	0.012586094
42	0xbbe73654	-0.007056037
43	0xbd44c3c1	-0.048038248
44	0xbd34fde6	-0.04418745
45	0xbd7f6a91	-0.06235749
46	0xbcf3d7bc	-0.029765956
47	0xbd874e40	-0.06606722
48	0xbcf58bd4	-0.029973902
49	0xbdd06be2	-0.10176827
50	0xbd36afaf	-0.04460114
51	0xbdc37dee	-0.095455036
52	0xbdbe3d97	-0.09289091
53	0xbdebfb5a	-0.11522551
54	0x3d838c15	0.06423203
55	0xbbc9abc5	-0.0061545097
56	0x3ce0c5a1	0.027437987
57	0xbd43c6ed	-0.047797132
58	0x3aecd783	0.0018069599
59	0xba468858	-0.00075734174
60	0xbc0bceaf	-0.008533164
61	0xbcc0ef1b	-0.023551514
62	0xbc503d28	-0.012709893
63	0x3cc69fbb	0.024246087
64	0x3a259787	0.000631683
65	0x3ca74f75	0.02042363
66	0xbcba65d4	-0.022753634
67	0x3c3922cb	0.011299799
68	0x3d193b38	0.03740999
69	0x3cdb9f78	0.026809439
70	0x3c9f0ae3	0.01941437
71	0xbd8d6061	-0.069031484
72	0x3d20f48c	0.039295718
73	0x3bf25b7f	0.007396161
74	0x3d47dc7b	0.04879425
75	0xbb926260	-0.0044672936
76	0x3d8d9bf6	0.06914513
77	0x3d56ec2d	0.05247133
78	0x3e172705	0.14760979
79	0x3d831dbf	0.06402158
80	0x3ca2d906	0.019878875
81	0xbe15e4c1	-0.14638044
82	0xbe3dc0f1	-0.18530633
83	0xbd8280e2	-0.06372239
84	0x3d102e1c	0.035200223
85	0xbd8fcf59	-0.0702197
86	0xbd8c12cf	-0.06839525
87	0x3dfc1501	0.12308694
88	0x3e018400	0.1264801
89	0x3e45f186	0.19330415
90	0xbc96ab51	-0.018392237
91	0xbd1d5823	-0.03841413
92	0x3c7c8db3	0.015414643
93	0x3e114fac	0.14190549
94	0xbc7ef345	-0.01556093
95	0x3d87825c	0.06616661
96	0x3e1ac621	0.15114643
97	0x3df251bb	0.11831995
98	0x3e8fd986	0.28095645
99	0xbd8b14e8	-0.06791097
100	0x3b40348b	0.0029328193
101	0x3d8afb0a	0.06786163
102	0x3d943b1c	0.07237837
103	0x3ca31b76	0.019910555
104	0x3d91163c	0.07084319
105	0x3e45b6df	0.19308041
106	0x3d814c60	0.063133955
107	0x3e69fd3e	0.2285051
108	0x3d90075b	0.07032653
109	0x3e062b51	0.13102461
110	0x3debfdc8	0.11523014
111	0x3c2c032e	0.010498805
112	0xbcdd82b6	-0.027039867
113	0x3c9a8d8b	0.018866321
114	0x3da4991e	0.08037017
115	0x3d5e0ad5	0.05420955
116	0x3d769a1e	0.06020557
117	0x3b428a95	0.0029684652
118	0x3cbd52a6	0.023110699
119	0x3cdd8fe8	0.027046159
120	0xbdf1abb5	-0.11800329
121	0xbe0f13e3	-0.1397243
122	0xbd48fe4b	-0.049070638
123	0xbdb4bb9c	-0.08824846
124	0xbd960a61	-0.07326198
125	0xbd3809d9	-0.044931266
126	0xbe1dca53	-0.15409212
127	0xbdec9bb0	-0.115531325
128	0xbdf4a186	-0.11944871
129	0xbe0d7092	-0.13812473
130	0xbdc1776e	-0.094466075
131	0xbcaddd0e	-0.021223571
132	0x3d164ea2	0.036696084
133	0xbc103cb4	-0.008803535
134	0x3c9d0acb	0.019170186
135	0x3dfe7d5e	0.12426256
136	0x3d83a906	0.06428723
137	0xbc3f0870	-0.0116597265
138	0xbe5b4965	-0.21414717
139	0xbe34cf5e	-0.1765723
140	0xbe14a742	-0.14516929
141	0xbe47d036	-0.1951302
142	0xbe3fd122	-0.18732122
143	0xbe46ccda	-0.19414082
144	0x3de3357c	0.11094186
145	0x3dbe3428	0.09287292
146	0x3d0d973c	0.034568056
147	0xbc37a90b	-0.011209737
148	0xbc488643	-0.012239042
149	0x3b95f11a	0.0045758607
150	0x3dc54ee4	0.09634188
151	0x3d7515e9	0.05983535
152	0x3d063e6d	0.032774378
153	0x3db687f9	0.089126535
154	0x3d23d5c7	0.039998796
155	0xbc4ebcb3	-0.012618232
156	0x3e1dbb82	0.1540356
157	0x3e0c8f5c	0.13726562
158	0x3df434f5	0.11924163
159	0x3e9aacfd	0.30210105
160	0x3e841df3	0.258041
161	0x3e7e6063	0.24841456
162	0xbdcf11fa	-0.10110851
163	0xbcf3baae	-0.029752102
164	0x3cc22423	0.023698872
165	0xbc7d651f	-0.015466004
166	0xbcd9922f	-0.026558964
167	0x3b73ac70	0.0037181638
168	0x3de80f40	0.11331034
169	0x3d2701ce	0.040773205
170	0xbc9c75e5	-0.019099185
171	0xbd3e6de7	-0.04649153
172	0x3ca29684	0.019847162
173	0x3d4cf345	0.050036687
174	0xbd1b21ba	-0.03787396
175	0xbca44c83	-0.020056015
176	0x39e76e2a	0.00044141832
177	0xbccf0a18	-0.025273368
178	0xbd1346e5	-0.035956282
179	0xbc92b193	-0.01790694
180	0xbd35625e	-0.044283263
181	0x3c6a2b2f	0.014292522
182	0x3d258c91	0.040417258
183	0xbd8fe4cb	-0.07026061
184	0xbd8857ce	-0.066573724
185	0xbcccf450	-0.025018841
186	0xbdcbd0a3	-0.09951904
187	0xbe0473bb	-0.12934773
188	0xbdfe452b	-0.124155365
189	0x3e935a89	0.2878001
190	0x3e45bec0	0.19311047
191	0x3e193e86	0.14965257
192	0x3d024956	0.03180822
193	0x3ac624a0	0.0015117116
194	0xbbecba57	-0.007224362
195	0xbd2e664d	-0.04257803
196	0xbdaea75a	-0.085280135
197	0x3af5db1f	0.001875732
198	0x3e67e041	0.2264414
199	0x3dc539dc	0.096301764
200	0x3e3ffa33	0.18747787
201	0x3d74ab61	0.059733752
202	0xbce1ddfa	-0.027571667
203	0x3d27b693	0.0409456
204	0x3d79211d	0.060822595
205	0x3df01f3c	0.117247075
206	0x3dcb7b65	0.09935645
207	0x3e14d2d5	0.14533551
208	0x3c27b9c7	0.010237164
209	0x3e2299c8	0.15878975
210	0x3dc190f7	0.09451478
211	0x3d9e3883	0.077256225
212	0x3d4de75a	0.050269462
213	0x3e794b50	0.24345136
214	0x3eb3c7b6	0.35113305
215	0x3eb625ea	0.355758
216	0xbcb4d12e	-0.0220724
217	0xbda7a665	-0.08186034
218	0xbdcffa95	-0.101552166
219	0xbc553c28	-0.013014831
220	0x3b861148	0.0040914156
221	0x3d917d13	0.07103934
222	0x3ce82320	0.028337061
223	0xbbf1ad53	-0.007375398
224	0xbc650025	-0.013977085
225	0xbcaaa5d2	-0.020831022
226	0x3bd761c2	0.006572933
227	0xbd2d486a	-0.042305388
228	0xbdc9fe7d	-0.09862993
229	0xbd222a98	-0.0395914
230	0x3dcc63de	0.09979986
231	0xbce4bd75	-0.027922371
232	0xbd440353	-0.047854733
233	0x3c4ffebf	0.012695014
234	0xbd35be2e	-0.044370823
235	0xbbcc33e0	-0.00623177
236	0xbd164876	-0.036690198
237	0xbe433e18	-0.19066656
238	0xbe56e9aa	-0.20987573
239	0xbcb31634	-0.021861173
240	0xbe31d617	-0.17366825
241	0xbdd02a87	-0.101643614
242	0xbdf377d4	-0.1188809
243	0xbd7bc06a	-0.061462797
244	0xbcfad3e3	-0.030618614
245	0x3b704929	0.00366647
246	0x3dfd8c34	0.12380257
247	0x3d8be69f	0.06831097
248	0x3c69fa9a	0.0142809395
249	0xbd021b59	-0.031764362
250	0xbcdc4601	-0.02688885
251	0x3c2ed3f0	0.010670647
252	0xbc15584c	-0.00911529
253	0xbd767d11	-0.060177866
254	0xbe96e177	-0.2946889
255	0x3d633d9a	0.05547867

model.0.bias f4 [128]
0	0x3e159edf	0.14611386
1	0xbe033b37	-0.12815557
2	0x3de2d68d	0.110760786
3	0x3e784764	0.24245983
4	0xbedc9cd6	-0.43088406
5	0x3ed17cc5	0.40915504
6	0xbe78bfe3	-0.24291949
7	0x3e9e5bdf	0.30929467
8	0xbe5761b1	-0.2103336
9	0xbe0768c7	-0.13223563
10	0x3e585e42	0.21129707
11	0xbe9f0c28	-0.31063962
12	0x3c40297b	0.01172864
13	0xbe9b2011	-0.30297902
14	0xbec79d84	-0.38987362
15	0xbe344a11	-0.17606379
16	0x3ea244a1	0.31692985
17	0x3e9aab0f	0.30208632
18	0x3debe0ba	0.115174726
19	0xbe5b4152	-0.21411636
20	0xba01f968	-0.0004958124
21	0x3e1d6c55	0.15373357
22	0xbe002d3a	-0.12517253
23	0xbf045476	-0.5169138
24	0x3ea6d4c1	0.32584193
25	0x3e614ed5	0.22002728
26	0xbe2536cb	-0.16134183
27	0xbcffcbce	-0.031225111
28	0x3e346c08	0.17619336
29	0xbe296511	-0.1654246
30	0xbdd66b50	-0.10469687
31	0xbeba42d7	-0.3637912
32	0xbb638f9d	-0.0034723051
33	0x3e2ff0e7	0.1718174
34	0x3ddbb757	0.10728329
35	0xbe9596f9	-0.29216745
36	0x3d1b6092	0.037933894
37	0xbca828e5	-0.020527313
38	0x3c5170db	0.0127832545
39	0xbe0675a1	-0.1313081
40	0x3d325529	0.043538246
41	0xbdfc2a2f	-0.123127334
42	0xbe4ac38b	-0.19801156
43	0x3e8f9cb9	0.28049257
44	0xbe4bb299	-0.19892348
45	0x3e680ae5	0.22660406
46	0x3e3783bb	0.17921345
47	0xbd0daebb	-0.034590464
48	0xbe3f80a5	-0.18701418
49	0x3e0da7f1	0.13833596
50	0x3e2be2d9	0.16785754
51	0x3e50cc41	0.20390417
52	0xbe34cc3f	-0.17656039
53	0xbe2bbbbb	-0.16770832
54	0x3e547b22	0.20750096
55	0x3e019ab5	0.12656672
56	0xbdcb6885	-0.09932045
57	0xbe12fc05	-0.1435395
58	0xbd16a903	-0.036782276
59	0x3b8e3d97	0.004340838
60	0x3deac41a	0.11463185
61	0xbf20dddc	-0.6283853
62	0xbcbcf179	-0.023064362
63	0xbec7e92e	-0.3904509
64	0x3e866937	0.26252148
65	0xbea52132	-0.3225189
66	0xbba220d7	-0.0049477625
67	0xbef4cf64	-0.47814476
68	0x3dbf73c5	0.09348253
69	0xbec07bf1	-0.3759456
70	0x3e297eaa	0.16552225
71	0xbc1cff42	-0.009582343
72	0x3dffb53b	0.12485739
73	0xbe864de8	-0.26231313
74	0x3b303527	0.002688715
75	0xbea9b236	-0.33143777
76	0xbe693a08	-0.22776043
77	0x3ea9fdb4	0.33201373
78	0x3e6187ce	0.22024462
79	0x3d7408e4	0.05957879
80	0x3e1b898f	0.15189193
81	0xbccfa293	-0.025346076
82	0xbe8fe4a7	-0.28104135
83	0xbdd7d0f7	-0.10537904
84	0x3e9d6e22	0.30748087
85	0xbd7ee022	-0.06222547
86	0xbe798f95	-0.24371178
87	0xbe906019	-0.28198317
88	0xbe8c243a	-0.2737139
89	0x3ddac696	0.106824085
90	0xbe763b0c	-0.24045962
91	0x3eaf0667	0.34184572
92	0x3e05fc0c	0.1308443
93	0xbe112b6d	-0.14176722
94	0x3e467f03	0.19384389
95	0xbd024ac1	-0.031809572
96	0x3e07609e	0.1322045
97	0xbd7ea917	-0.062172975
98	0x3e1aa14e	0.15100595
99	0xbccd14b5	-0.025034288
100	0x3dfa55a0	0.12223363
101	0xbee4832b	-0.44631323
102	0xbb754777	-0.003742663
103	0xbe94ce7f	-0.29063794
104	0x3eff0bd1	0.49813703
105	0xbdc96d65	-0.098353185
106	0x3ead13ba	0.33804113
107	0x3e74190a	0.23837677
108	0xbd6cc887	-0.057808425
109	0xbe9dad4c	-0.30796278
110	0x3e0ffb85	0.14060791
111	0xbe156092	-0.1458762
112	0x3e898d31	0.26865533
113	0xbda59f68	-0.08087045
114	0x3d880375	0.066412844
115	0xbdc7cb0f	-0.09755527
116	0xbe1b602e	-0.15173408
117	0x3e84fa0d	0.25972024
118	0x3e161f70	0.1466043
119	0x3cd21f38	0.025649652
120	0x3e2dab91	0.16959979
121	0x3b407f19	0.002937263
122	0xbe77241a	-0.24134865
123	0x3e67fc5e	0.22654864
124	0x3e44bdd5	0.1921304
125	0x3df79d21	0.12090517
126	0xbe7c4311	-0.24634959
127	0x3e8f693d	0.28009978

adv_layer.0.weight f4 [1, 2048]
0	0x3b900685	0.0043953084
1	0x3c8e1c1e	0.017347392
2	0xbd261e88	-0.04055646
3	0xbc8693be	-0.01642787
4	0xbbfbf201	-0.007688761
5	0x3b4099e2	0.0029388596
6	0x3c0ab3ca	0.008465717
7	0xbcd2dca1	-0.02573997
8	0x3b84fa6d	0.0040581734
9	0x3d77fd81	0.060544495
10	0x39c896de	0.00038259377
11	0xbc2941d1	-0.010330633
12	0xbc5ccdb2	-0.013476776
13	0xbd0aed5b	-0.033917766
14	0xbcd76132	-0.026291464
15	0xbca6197e	-0.020275827
16	0x3cb559b2	0.022137497
17	0xbdc30266	-0.09521942
18	0xbcd401a1	-0.025879683
19	0x3d42a759	0.047522876
20	0xbd31a18d	-0.043366957
21	0xbde11390	-0.109900594
22	0xbdf0cf27	-0.11758261
23	0xbd7a1938	-0.061059207
24	0xbdc646e6	-0.096814916
25	0xbc88e3aa	-0.016710121
26	0x3bc2d226	0.005945462
27	0xbd73cebb	-0.059523325
28	0xbcc91aef	-0.024548976
29	0x3d208695	0.039190847
30	0x3d397098	0.045273393
31	0x3cb5349f	0.022119818
32	0xbcd1fd27	-0.025633408
33	0x3c2f9110	0.010715738
34	0xbd10801f	-0.035278436
35	0xbcad4515	-0.021151105
36	0x3c61c26b	0.013779263
37	0xbd553d2a	-0.052060284
38	0x3cbd7c47	0.02313055
39	0xbc01805e	-0.00790414
40	0xbb4e51d8	-0.0031481888
41	0xbcd289d3	-0.025700485
42	0xbcd0bbf4	-0.025480248
43	0xbd8d19fe	-0.06889723
44	0xbcaf0e66	-0.02136917
45	0xbb6207f3	-0.0034489601
46	0xbc9600bb	-0.018310895
47	0x3c9effe2	0.019409124
48	0xbd81d553	-0.063395165
49	0xbdd0309a	-0.1016552
50	0xbe4eb709	-0.2018701
51	0x3cd71b84	0.026258238
52	0x3d471c83	0.048611175
53	0x3e55f7b0	0.20895267
54	0x3e33a809	0.17544569
55	0xbd84a42e	-0.06476627
56	0xbcd42d60	-0.025900543
57	0x3e0afead	0.13573714
58	0x3dcdcec5	0.10049204
59	0xbdba75c8	-0.09104496
60	0xbc31b3e3	-0.010846111
61	0x3d5d8e62	0.054090865
62	0x3d8ec761	0.06971622
63	0xbcc5d380	-0.024148703
64	0x3cc41e9d	0.023940379
65	0xbf8b74b7	-1.0894994
66	0xbf91245e	-1.1339223
67	0xbf28b5ed	-0.65902597
68	0x3d193d98	0.037412256
69	0xbf597215	-0.849397
70	0xbf782643	-0.9693338
71	0xbeca59a6	-0.3952152
72	0x3c0a1f94	0.00843038
73	0xbe36615d	-0.17810579
74	0xbec1dd71	-0.3786426
75	0xbe4ddfbc	-0.20104879
76	0xbca4e055	-0.020126501
77	0x3e413616	0.18868288
78	0x3e2a0599	0.16603698
79	0x3e1ea2d0	0.15491796
80	0x3c50067f	0.012696861
81	0x3d072cb5	0.03300162
82	0x3d8e6a7c	0.06953904
83	0x3ce2c0bf	0.0276798
84	0x3d36ee13	0.04466064
85	0x3ebf6f7d	0.37389746
86	0x3ee58dd8	0.4483478
87	0x3e3abcd7	0.18236099
88	0x3ce044dc	0.027376585
89	0x3f0ff293	0.56229514
90	0x3f2be094	0.67139554
91	0x3ecbcaa2	0.39803034
92	0xbca4bcb3	-0.02010951
93	0x3d4b7b77	0.049678292
94	0x3c1e20fc	0.009651419
95	0xbc5098fd	-0.012731788
96	0xbe0ea396	-0.1392959
97	0x3e52f651	0.20601775
98	0x3e49ef7c	0.19720262
99	0xbe40896b	-0.18802421
100	0x3ec86780	0.39141464
101	0x3e2e01f8	0.16992939
102	0x3ea7bcdd	0.3276128
103	0x3e787e1f	0.24266861
104	0x3e909a1f	0.28242585
105	0xbcac2a5d	-0.021016294
106	0x3dcb87e6	0.0993803
107	0x3e94b7b3	0.290464
108	0xbc72c358	-0.014817081
109	0x3ee3de4e	0.44505543
110	0x3e3bfb1b	0.18357508
111	0x3e3297fc	0.1744079
112	0xbc61bea1	-0.01377836
113	0xbe471b2b	-0.19443958
114	0xbe8c6152	-0.27418
115	0x3cc0bd99	0.023527907
116	0xbe065191	-0.13117053
117	0xbe726e6a	-0.23674932
118	0xbeba816a	-0.3642686
119	0xbe0684e6	-0.13136634
120	0xbe94cc62	-0.29062182
121	0xbdac49c3	-0.084125064
122	0xbd2a2315	-0.041537363
123	0xbe485815	-0.1956485
124	0x3cdc1105	0.026863584
125	0x3da260ba	0.079286054
126	0x3df2c111	0.11853231
127	0x3d726a50	0.05918342
128	0xbe9cfbeb	-0.30660948
129	0x3dc07d57	0.09398907
130	0x3dedf75f	0.11619448
131	0x3d460f48	0.048354417
132	0x3dd214ae	0.102578506
133	0xbd808dc5	-0.062770404
134	0xbdd4b921	-0.10386873
135	0xbca95b00	-0.020673275
136	0xbe229996	-0.15878901
137	0xbe21f2ee	-0.15815327
138	0xbd952784	-0.07282928
139	0xbde5fa85	-0.112294234
140	0x3dcbc642	0.09949924
141	0xbda01783	-0.078169845
142	0xbd44f16b	-0.048081797
143	0xbd9247ba	-0.07142587
144	0x3c0f3998	0.008741759
145	0x3d8dd1dd	0.06924794
146	0xbd982868	-0.07429582
147	0x3d6c3637	0.05766889
148	0xbd6de5b4	-0.05808039
149	0xbe926a1d	-0.28596583
150	0xbe98dfe1	-0.29858306
151	0x3dae2a69	0.08504183
152	0xbebd1805	-0.36932388
153	0xbde05ba9	-0.10954983
154	0xbd923af7	-0.07140153
155	0x3dbee79a	0.09321518
156	0x3d323477	0.043507066
157	0x3de88906	0.1135426
158	0x3dafeaf5	0.08589736
159	0x3dc9147c	0.0981836
160	0xbcc33dee	-0.023833241
161	0xbd24776d	-0.040152956
162	0xbd835edc	-0.06414577
163	0xbd7573fa	-0.059925057
164	0xbd166d05	-0.036725063
165	0xbd269eb1	-0.040678684
166	0xbcd01eb5	-0.025405267
167	0xbcec930d	-0.028878713
168	0x3d6fc393	0.058536123
169	0xbdcbaab7	-0.09944671
170	0xbd7203a8	-0.059085518
171	0x3ccd9b8b	0.025098583
172	0x3ce7c6ff	0.02829313
173	0xbd70b43a	-0.058765627
174	0xbdab48c2	-0.08363487
175	0x3d0b3327	0.03398433
176	0x3da2a5ef	0.079418056
177	0x3e9d086c	0.30670488
178	0x3e665d44	0.22496516
179	0x3df5cc48	0.12001854
180	0x3ea914cd	0.33023682
181	0x3dae3e8b	0.08508023
182	0x3d229f6a	0.03970281
183	0x3eb4e91e	0.35334104
184	0x3e10c9f1	0.14139535
185	0xbdad7be8	-0.08470899
186	0xbdc9e8d7	-0.09858864
187	0x3e241083	0.16021924
188	0x3df4d7d3	0.11955228
189	0x3d66a9cb	0.05631427
190	0xbceb93e5	-0.028757045
191	0xbd341107	-0.04396155
192	0xbcf75e5f	-0.030196367
193	0x3cfeff7b	0.031127682
194	0x3db95fea	0.09051497
195	0x3c831572	0.016001437
196	0xbdce93c4	-0.10086778
197	0xbccad35c	-0.024758987
198	0xbe3012f1	-0.17194726
199	0xbc759c6d	-0.014990908
200	0xbd0075ae	-0.031362228
201	0xbd507d90	-0.050900996
202	0xbd6dd0a6	-0.05806031
203	0xbcbb521f	-0.022866307
204	0xbe9ee810	-0.31036425
205	0x3c311ca5	0.010810052
206	0xbd17cf0d	-0.037062693
207	0xbe3eae50	-0.18621182
208	0x3d529537	0.051411834
209	0xbf4ef6cf	-0.8084535
210	0xbf07cbd8	-0.53045416
211	0x3ca52fae	0.020164337
212	0xbf09383b	-0.53601426
213	0xbeba1742	-0.3634587
214	0xbee5bde6	-0.44871444
215	0x3d8e3e1e	0.06945442
216	0xbeb95e66	-0.36204833
217	0xbcc698c2	-0.024242762
218	0x3d65cb22	0.056101926
219	0x3a5db4e9	0.00084574387
220	0xbde5c71d	-0.112196185
221	0x3e1e6e1b	0.1547169
222	0x3e183572	0.14864138
223	0x3e31d843	0.17367654
224	0x3c036675	0.008020033
225	0x3c87c919	0.016575383
226	0x3c7a8ce9	0.015292385
227	0x3ce60fce	0.028083708
228	0x3d469513	0.048482012
229	0xbf258e1b	-0.6466996
230	0xbf4f9cdd	-0.8109873
231	0xbf038935	-0.51381236
232	0x3cdd9744	0.027049668
233	0xbec3dc74	-0.3825413
234	0xbf0690f3	-0.52564925
235	0xbe8e7bd6	-0.27828854
236	0xbc03836e	-0.008026941
237	0x3d28ee17	0.041242685
238	0x3d0f47fd	0.034980763
239	0x3c6059d7	0.0136932945
240	0x3cae8756	0.021304768
241	0xbe3cba60	-0.18430471
242	0xbde6b951	-0.11265815
243	0x3e13482d	0.14383002
244	0x3e4b9f87	0.19885074
245	0x3ebd4ddd	0.36973467
246	0x3e96961c	0.294114
247	0x3e8b50e7	0.2721016
248	0x3e43b0c9	0.19110407
249	0x3e20137d	0.15632434
250	0x3e193dbd	0.14964958
251	0x3db4b585	0.088236846
252	0x3d934938	0.071917
253	0x3d9e8791	0.07740701
254	0x3d249c1d	0.040187944
255	0x3d67c1bf	0.056581255
