crucial_checkpoints/generator_epoch_49_8x8.pth (torch, 847470 bytes, 8 tensors)

l1.0.weight f4 [2048, 100]
000000 e3 5a b5 bc 25 e5 34 bd 65 f5 b1 3c e9 d2 97 3c
       -0.022138065 -0.04416384 0.021723459 0.018533187
000010 54 0f 38 3d 6c 15 34 3d 17 2a 9b bc 8f 26 14 3d
       0.044936493 0.043965742 -0.018940968 0.036169585
000020 ff 3f 88 3d eb bc b1 bd 94 f9 ca 3c 58 75 e2 bd
       0.06652831 -0.08678611 0.024777211 -0.11057538
000030 47 e6 9b bd b9 48 88 bd 9b ca cf 3d 37 ca 6f 3d
       -0.07612281 -0.06654496 0.10146066 0.058542456
000040 46 6e c6 3c fe e5 19 3d 68 b0 94 3d f9 99 cd 3d
       0.024222504 0.037572853 0.07260209 0.100391336
000050 59 18 14 bd 80 68 e8 bd 04 32 a9 3d 68 e6 95 bd
       -0.036156032 -0.11348057 0.08261493 -0.07319337
000060 2e 37 88 3b 98 c0 2d bc 2a df 8f bd ce c7 12 3d
       0.0041569686 -0.010605 -0.07024987 0.03583508
000070 85 69 46 3d 0c 27 f1 bd 7b 82 6c bd f3 fa f6 bc
       0.048440475 -0.11775026 -0.057741623 -0.030148959
000080 6e 08 3d 3c 27 6e 71 3d 91 dd e1 3d ed 19 26 bc
       0.011537654 0.05894294 0.110285886 -0.010138017
000090 75 91 02 3d 5d 15 77 3c e0 21 18 3d 83 a4 e8 3c
       0.031877 0.015080777 0.03714168 0.028398758
0000a0 53 ff 2e bd 2c a5 80 bd 48 66 8a 3d f8 1b f4 3c
       -0.042723965 -0.06281504 0.0675779 0.029798493
0000b0 92 10 c7 bd 22 69 c4 3d e1 4a 68 bd e2 25 44 bd
       -0.097199574 0.09590365 -0.056712035 -0.04788769
0000c0 cd c0 fa 3c 86 f9 52 bd ce 46 65 3d ef 8f 5f 3d
       0.030609513 -0.051507495 0.055975728 0.054580625
0000d0 d3 b0 f4 bd 7e b8 a4 bd db 3d c3 3d de 0f 8d 3d
       -0.11947789 -0.080430016 0.09533282 0.06887792
0000e0 bc 2f ef 3c 77 2c fd 3c 2e da 7c 3d 66 87 9e bd
       0.029197566 0.030904992 0.06173151 -0.07740669
0000f0 2d c6 63 bd db db 50 bd 90 35 8d 3d af a2 da 3d
       -0.055608917 -0.05099092 0.06894982 0.10675561
000100 da 33 af bd 8b 4a 39 bd 81 ae 62 3c e9 50 44 3d
       -0.08554812 -0.045237105 0.01383555 0.047928724
000110 14 02 32 bd 69 5a cc 3d 22 61 06 bc cf 7e 85 3d
       -0.043459013 0.09978182 -0.008201869 0.065183274
000120 7e d5 3b bd 7e 97 3b bc 14 46 84 bd 33 b7 09 be
       -0.0458579 -0.011449693 -0.06458679 -0.13448791
000130 cc 70 51 3d eb 60 03 3e fb 05 42 3d a5 bd 28 bd
       0.051132962 0.1282994 0.047368985 -0.041196484
000140 62 22 22 38 44 e9 70 3d 32 4c 31 3c 77 a8 7c bd
       3.865583e-05 0.05881621 0.010821389 -0.061684098
000150 0f f7 be 3c cd 0c 82 bd 50 bb a0 bc 54 cb a6 3d
       0.023311166 -0.06350098 -0.019620568 0.081442505
000160 72 86 cf 3d aa 49 4b bd 24 02 56 3c 95 b0 c2 bc
       0.10133065 -0.0496308 0.013062034 -0.023765841
000170 e9 9d a4 3d 59 84 cc bc 15 9f a2 3d 16 73 21 bd
       0.080379315 -0.024965452 0.07940499 -0.039416395
000180 32 39 66 3b 1e d7 9a 3b 30 af 18 3c 4f b2 51 bd
       0.0035129306 0.004725351 0.009319112 -0.05119544
000190 42 7d 10 be 2d 51 8c 3d 1c 3a c4 bd 0e ff 75 3c
       -0.14110282 0.068514206 -0.09581396 0.015014423
0001a0 b5 0e 05 3c c5 a3 a3 bd c3 db a5 3d 97 4c 74 3b
       0.008121182 -0.07990221 0.08098557 0.0037277096
0001b0 ba 24 b0 bd 1d 68 a4 3d 1c db 1f 3c bb a5 2e bd
       -0.08600755 0.080276705 0.00975683 -0.04263852
0001c0 5e 4b e3 bd 58 8a e3 bc 9f 59 0e bd 71 84 a0 3d
       -0.110983595 -0.027775928 -0.034753438 0.07837761
0001d0 17 a8 ae 3d 83 4f 4e bd a9 0b 01 3d bb 18 82 bd
       0.08528154 -0.050368797 0.03150526 -0.06352373
0001e0 23 a6 49 3c 41 f1 d4 3d 67 1c 69 3a 09 77 83 3d
       0.0123076765 0.10397578 0.0008892477 0.064191885
0001f0 42 6a 38 3d c3 b4 3a bd 42 12 70 3c 02 8d 6d 3d
       0.04502321 -0.045582544 0.0146527905 0.057995804
000200 90 dd d7 bd 50 08 30 3b b8 3e 71 bd 3e 56 92 3c
       -0.105403066 0.0026860423 -0.058897704 0.01786339
000210 10 52 04 3d f8 2c 97 3d a0 fa 05 3b a7 cd d9 bd
       0.032304823 0.07381624 0.0020443574 -0.10634928
000220 de b1 3b 3b 7b f3 17 3d 32 d8 03 bc c1 c0 b1 bd
       0.0028639953 0.037097435 -0.00804715 -0.08679343
000230 e3 51 bf bd 83 39 95 bb 9d f9 1a 3d ff 1c ba 3d
       -0.093417905 -0.004553975 0.037835706 0.09087562
000240 7a 93 5a bd 3b b7 ca 3c 40 8d 07 3d 2e f3 8d 3d
       -0.0533633 0.024745574 0.03309369 0.069311485
000250 96 92 82 bd af e6 16 3e c8 48 91 bd d4 4a b2 3d
       -0.06375615 0.14736436 -0.0709396 0.087056786
000260 27 3a bc 3c e2 ab 71 3c 04 00 dc 3b 37 d4 59 3b
       0.022976948 0.014750453 0.006713869 0.0033238062
000270 ed 49 05 bd ef dc 16 bd c1 6c d1 bd 9d 2f 80 3d
       -0.032541204 -0.036831792 -0.10225821 0.062590815
000280 aa 2a 6e bc 26 f1 26 bb 9f 2e e4 bc d9 33 29 3d
       -0.014536539 -0.0025473326 -0.027854262 0.04130921
000290 0f f6 7e bd 4d 84 88 bd 2f de 80 3d fb 8e 85 bd
       -0.06224638 -0.06665859 0.06292378 -0.06521412
0002a0 ad 7f ba 3d 93 e5 27 3c fe 0b 4d 3d d7 a5 17 3c
       0.091063835 0.010247606 0.050060265 0.009255848
0002b0 92 67 48 bd b9 f7 be bd 8e 70 d6 3d cb c3 02 be
       -0.048926897 -0.09324593 0.10470687 -0.12770002
0002c0 10 a3 3d 3d bf 39 f8 3d 6d b0 57 3d 85 c6 9f bd
       0.046298087 0.12120389 0.052658487 -0.078015365
0002d0 4c af aa bd ef b1 f2 3c af 31 d9 bb 9a 10 2c 3d
       -0.083342165 0.029625861 -0.006628237 0.04200802
0002e0 b1 a2 25 3b ba 7f 76 bc 8b dd c7 bb 34 03 13 3d
       0.0025273974 -0.015045101 -0.006099408 0.035891727
0002f0 2d 30 bb 3c 85 bf 48 bd 28 14 95 3d 2d 55 3f bd
       0.02285012 -0.049010772 0.07279235 -0.04671209
000300 39 9a 8b 3c 20 b6 8c bd ae d4 a1 bd 87 f3 c7 bd
       0.017041313 -0.06870675 -0.079018936 -0.09763246
000310 b7 5a 87 3c 5c ac 95 3c 74 ed d1 bc 6a 17 76 3d
       0.016522748 0.018270664 -0.025625922 0.060080923
000320 d6 88 81 bd 71 65 cb bd 4a 08 23 3d b8 71 25 bd
       -0.063249275 -0.09931458 0.039802827 -0.040391654
000330 23 e2 a5 bd 1a 47 c4 3d a4 0c 88 3d 21 0b a1 3b
       -0.08099773 0.09583874 0.06643036 0.0049146567
000340 a1 18 a5 3d 4a 2d 41 bd 9b 22 5a bd e3 92 9d 3d
       0.08061338 -0.04716233 -0.05325566 0.07694032
000350 fb 7c 19 bd 05 f9 24 3b ba 6d 5c 3d 1c 5c 02 3e
       -0.037472706 0.0025172841 0.05381558 0.1273045
000360 a6 24 15 bd d8 d6 0c bd 2a fc 2c 3d 43 01 8d 3d
       -0.036411904 -0.03438458 0.04223267 0.06885006
000370 ce e7 32 3d 21 d3 ac 3d 19 9b 7e 3c 63 33 8c 3d
       0.043678097 0.08438707 0.015539908 0.06845739
000380 d8 2f 0f 3e f1 b7 a2 3d d1 83 4d 3d fb 7f a8 bc
       0.13983095 0.0794524 0.050174538 -0.020568838
000390 37 53 55 3d de e9 a0 bd c1 5a c3 bd d8 e8 51 3d
       0.052081313 -0.078571066 -0.09538794 0.051247448
0003a0 03 c4 32 bd eb bb b7 bd a0 ec 93 3d a6 73 42 bb
       -0.043643963 -0.089713894 0.07222867 -0.0029670983
0003b0 4d a5 27 bd e6 9c a2 3c fa 95 f6 3d a4 df 40 bd
       -0.040929127 0.019850206 0.120403245 -0.04708828
0003c0 f4 9b a9 bd 25 27 bd 3d dd 16 db 3d 0f 87 4b bd
       -0.08281699 0.09235982 0.1069772 -0.04968935
0003d0 9d 6b 3e bd cb ce a1 3d 7d c4 89 3d 96 67 cc 3c
       -0.046489347 0.07900771 0.0672693 0.024951737
0003e0 92 e9 85 bd 06 d1 d8 3d 3a 39 aa 3d 9b 10 bd bd
       -0.065386906 0.10586743 0.08311696 -0.09231683
0003f0 32 27 00 3d c7 f1 66 bd 39 4c ba 3d 62 64 b2 bb
       0.03128738 -0.05638292 0.090965696 -0.0054440955

l1.0.bias f4 [2048]
000000 1e 9f 51 bd a4 64 6e bd b4 03 88 bd a6 5c 82 be
       -0.051177137 -0.058201447 -0.06641331 -0.2546131
000010 ea e8 c9 3b ef fb c9 3b f0 c7 fc 3d 74 4c 8e 3c
       0.0061617987 0.006164066 0.123428226 0.01737044
000020 7c d0 1f 3e b1 57 be 3d de 87 2a 3e ec 04 22 3e
       0.15606874 0.092940696 0.16653392 0.1582219
000030 27 2b 11 be 95 ad a8 3d db 5e fc 3c 4d 0d 8c be
       -0.14176618 0.08236233 0.03080695 -0.27353898
000040 c3 2f 23 bd fd a5 36 bd f9 81 df bc 9c fe be 3d
       -0.03984047 -0.044591893 -0.027283655 0.09325907
000050 a7 74 8f 3d 2c e9 cd bc 18 2a 1d be 24 e3 08 3e
       0.070046715 -0.0251356 -0.15348089 0.13367897
000060 9e 57 ee 3d 8b 7b aa 3c 6b d5 58 bd 17 85 34 3e
       0.116378054 0.020810863 -0.052937906 0.17628895
000070 ce ae 80 3d fd c4 de bd aa 4b 64 be c4 6e 29 3d
       0.06283341 -0.10877416 -0.22294489 0.0413654
000080 9a b0 b8 bd 85 8c 2c 3d 27 c0 12 3d de 10 a5 bd
       -0.09018059 0.042126197 0.035827782 -0.08059858
000090 4d a6 e9 bc 96 8d 4f 3d 72 f8 69 bd 78 fe c4 bd
       -0.028521681 0.050672136 -0.0571217 -0.096188486
0000a0 a1 f2 69 be 8c ba d8 3d 7c 8d e9 3c 95 23 23 be
       -0.22846462 0.10582456 0.028509848 -0.15931542
0000b0 6c 93 26 3d 77 f4 ff 3c 2d 2d 73 3d e0 49 49 3c
       0.040667936 0.0312445 0.059369255 0.01228568
0000c0 02 a9 76 3d ef c2 0a 3b 55 a1 5b 3d 56 5b 90 3d
       0.060219772 0.0021173318 0.053620655 0.07048671
0000d0 96 77 05 be 48 fd 36 be c5 8d c7 bd 73 bd 63 be
       -0.130339 -0.17870057 -0.09743837 -0.22240238
0000e0 5a a6 74 bd d2 86 0d 3c 7d a1 49 bd de e0 f4 3c
       -0.059728958 0.008638101 -0.049226273 0.029892381
0000f0 70 eb 13 3c 78 d8 41 3a 23 b2 f5 3d 6e 0e 97 bd
       0.009028301 0.0007394622 0.119968675 -0.07375799
000100 3a ad 2f be 3d 8a cd 3d 0c 50 32 bd da e3 c1 bc
       -0.17155924 0.100361325 -0.04353337 -0.023668218
000110 02 9c 26 be c3 9d ff 3d 55 c7 1f 3d 4d 35 ba 3b
       -0.1627045 0.124812625 0.039008457 0.0056826235
000120 d8 54 db bd 01 95 05 3e d9 f1 77 3e 43 eb 6f 3d
       -0.10709542 0.13045122 0.24213351 0.058573972
000130 aa fc b8 bd 1d 55 e7 3d 82 88 7a bd b6 fa 50 3e
       -0.09032567 0.11295531 -0.06116534 0.20408139
000140 e4 14 84 3e 3b 78 73 3d 14 0d af 3c bc d1 0e bd
       0.25797188 0.059440833 0.02136854 -0.034867987
000150 66 30 81 be 84 2f dd bd e4 cb 40 be da 10 5c 3d
       -0.25232238 -0.108000785 -0.18827778 0.05372701
000160 00 2a c3 bd 30 0a eb 3d 0a 10 19 be d2 13 87 bc
       -0.09529495 0.114765525 -0.14947525 -0.016488943
000170 3f 6a 68 b9 c0 7d b1 3b b5 3d 92 3c 81 ce 13 3d
       -0.00022164824 0.005416602 0.01785169 0.03608561
000180 19 66 3f 3e 23 9c 39 3e ba f2 fc 3c a0 73 17 3d
       0.18691291 0.18125968 0.03087746 0.036975503
000190 81 0e a4 bd dc 1f eb bd 02 f3 c1 bd 7a ac 5d be
       -0.08010579 -0.11480686 -0.09470178 -0.21647826
0001a0 f9 38 80 bd e9 b0 b7 bd af 1a bc 3d e6 dc a5 bd
       -0.06260867 -0.0896929 0.09184777 -0.08098774
0001b0 18 1a 2b bd 15 02 af 3c 9a 1a 49 3d fd 72 6b be
       -0.04177293 0.021363297 0.049097635 -0.22993083
0001c0 a2 97 f5 3b 6e 99 31 bd eb d1 20 3c bd ed f1 3c
       0.0074948827 -0.043359213 0.009815673 0.029532308
0001d0 4e c2 86 3c ed 98 18 3c e2 f4 8c bd cd 9a a4 3b
       0.016450074 0.009313804 -0.06882645 0.0050233365
0001e0 3e b4 80 3d 9d c6 91 bd 30 fd 5f 3d ea cb 93 3c
       0.062843785 -0.071179606 0.054684818 0.01804157
0001f0 12 13 dc 3d c6 73 65 3d a1 fc e9 bd 94 0d a3 3d
       0.10745825 0.056018613 -0.11425138 0.07961574
000200 83 2a 55 3d 16 2b 17 3e 3a e7 fd bc 50 99 89 3e
       0.052042495 0.1476253 -0.030994046 0.2687478
000210 cb 31 e8 bd 80 df 16 be d2 d1 d3 bd b5 16 78 ba
       -0.11337622 -0.14733696 -0.103427544 -0.0009463833
000220 5e 5d 94 bd 9d 5e e8 bc e5 39 c1 bb 0f 8f 82 3e
       -0.07244371 -0.028365428 -0.005896794 0.2549977
000230 9c bd 50 3d 2e 60 ac 3d 21 0f b6 bd 15 ba 6f 3d
       0.050962076 0.08416782 -0.08889604 0.05852707
000240 4e f6 d0 3d c4 f2 ae bd b2 5d 2f bb ab 6b 87 3d
       0.10203229 -0.085423976 -0.0026758728 0.06612333
000250 0d 51 04 3e 45 11 09 bd ff 2e 57 3c e0 91 a2 bc
       0.12921543 -0.033463735 0.013133763 -0.01984495
000260 b4 e6 8c bb 48 25 e4 bd 10 7e d1 bd 15 bb 7d bd
       -0.004299963 -0.11139923 -0.10229123 -0.061945993
000270 1d da 3c 3d b8 ea 0a bc 0c 2e 9e bc 19 ff 6a 3d
       0.046106447 -0.008478813 -0.019309066 0.057372186
000280 dc e9 d5 bc 2d 1e fb 3d 28 c1 4f 3d da fe ed 3c
       -0.02611249 0.12261615 0.050721318 0.029052187
000290 d7 10 d3 bd 2e 57 9b bd 0a 20 ab 3c 51 93 66 be
       -0.10305946 -0.075849876 0.0208893 -0.22517134
0002a0 d4 6d 99 bc 5a 0c bf 3c 01 cb 8a 3c c3 b1 76 be
       -0.018729128 0.02332132 0.016942503 -0.24091248
0002b0 43 17 29 3e d2 29 14 3c a1 f0 07 3e 9f f6 a1 3d
       0.1651278 0.009043174 0.13275386 0.07908367
0002c0 49 66 23 3d 6d bd e1 bc 1c 9a f5 3c af a6 22 be
       0.03989247 -0.027556146 0.029980712 -0.15883897
0002d0 4e 02 01 be f1 03 3e bd eb cd f1 bb 89 cf 95 bd
       -0.12598535 -0.046390478 -0.0073792837 -0.07314975
0002e0 77 21 4d bd 76 c5 8c 3c 84 6b c6 bc e9 7d 6d be
       -0.050080743 0.017184 -0.02422119 -0.23192562
0002f0 a5 26 16 3e 9f 42 e4 3c e2 c6 d8 3d 21 97 1b 3d
       0.14663179 0.027863799 0.10584809 0.037985925
000300 4a 90 32 3d b2 0f fb 3a 86 38 db 3d 22 11 6e be
       0.043594636 0.0019154458 0.1070414 -0.23248723
000310 94 37 e0 3d 94 4d 51 3d 6c c1 08 3d e5 ee be bd
       0.10948101 0.051099375 0.033387586 -0.09322909
000320 25 52 bb bb 13 ec e7 bb 40 8d c3 bc cb 03 42 be
       -0.0057165795 -0.007077703 -0.023871064 -0.1894676
000330 03 09 20 3e d5 5b 42 be 3e 91 f8 3d 80 81 1e bd
       0.15628438 -0.18980344 0.12137078 -0.03869772
000340 1c 9c 31 bd 7d 75 c0 3d b0 5e 3b 3e 03 8c 0f be
       -0.043361768 0.09397409 0.18297839 -0.14018254
000350 fc 34 2c bd 3b c2 55 3d 70 11 83 bd 98 bd 91 ba
       -0.042042717 0.052187186 -0.0639981 -0.0011119125
000360 b6 dc 6e ba 7c b6 dc 3d d3 6e 90 3d da 0a 21 be
       -0.0009111868 0.10776994 0.07052388 -0.15726796
000370 63 e7 00 be 96 88 1f bd 26 eb 37 3e 88 c9 34 bd
       -0.12588267 -0.038948618 0.17960796 -0.044137508
000380 8e 22 33 3e fb 99 6e 3d 18 d8 4e 3e 4f 71 8b 3d
       0.1749365 0.058252316 0.2019962 0.06808721
000390 f6 9d 6a bd 8e 67 ed bd 90 ad 28 be 99 b6 84 be
       -0.05727955 -0.11592017 -0.16472459 -0.2592056
0003a0 65 b2 8c bd dc b5 5c 3c dc 60 00 3d 58 ce 38 bd
       -0.068699636 0.013471093 0.031342372 -0.04511866
0003b0 4a 47 be 3d 07 e0 99 3d 2f 8f ea bc 47 fa 43 3d
       0.09290941 0.07513433 -0.028632728 0.047846105
0003c0 52 91 be 3b 63 8a fd bd 84 cc 0d be aa 69 1b be
       0.0058156634 -0.12379911 -0.13847548 -0.15177026
0003d0 a5 71 31 3e 7a 84 a5 bc 04 8c 72 3d 0c 8a 54 3e
       0.17328508 -0.020204771 0.05921556 0.20755786
0003e0 18 70 00 3d 8e 45 02 3e a3 31 8f bc ea e9 57 bc
       0.0313569 0.12721846 -0.017479723 -0.013178328
0003f0 86 b9 93 3b 10 b0 c9 bd 24 7a e1 bd 76 e7 d0 3c
       0.0045082 -0.098480344 -0.110096246 0.025500994

conv_blocks.0.weight f4 [128]
000000 fc 2b 44 3f c9 70 47 3f 56 93 27 3f 37 66 31 3f
       0.76629615 0.7790647 0.6545919 0.6929659
000010 7e fb 45 3f c3 30 46 3f 8c ef 35 3f e7 72 1b 3f
       0.7733687 0.77418154 0.71068645 0.607222
000020 a2 b1 44 3f 92 cb 40 3f 86 20 51 3f d3 aa 35 3f
       0.76833546 0.75310624 0.8169025 0.7096378
000030 ab ee 38 3f 7b 09 35 3f 83 e1 41 3f d2 b8 35 3f
       0.7223918 0.7071759 0.7573473 0.7098514
000040 86 d3 2d 3f cf 44 40 3f e1 62 33 3f 45 be 3d 3f
       0.67900884 0.75104994 0.7007275 0.74118453
000050 18 93 3e 3f 62 e0 42 3f 8b 4b 4a 3f 2c 03 47 3f
       0.744432 0.7612363 0.7902152 0.77739215
000060 c0 78 36 3f df db 45 3f 8a 4a 32 3f ad d8 2f 3f
       0.71278 0.7728862 0.6964499 0.68689996
000070 58 41 2f 3f 8f ca 46 3f 8b a2 28 3f 2a 86 36 3f
       0.6845908 0.7765283 0.6587302 0.7129847
000080 ac 83 34 3f 03 f9 3c 3f af 36 38 3f 6f 34 57 3f
       0.70513415 0.7381746 0.7195844 0.8406438
000090 59 e3 4c 3f f1 18 36 3f 4b 6d 33 3f 64 e8 57 3f
       0.80034405 0.7113181 0.7008864 0.84338975
0000a0 e2 dc 3c 3f c4 d8 3e 3f 6f 79 3b 3f 2a 68 48 3f
       0.7377454 0.7454951 0.7323217 0.7828394
0000b0 44 d8 38 3f 6a 72 27 3f 68 d0 25 3f 4a 3a 3e 3f
       0.72204995 0.65408957 0.6477113 0.7430769
0000c0 52 7c 3a 3f 2d e8 31 3f eb 53 3e 3f 3a 6d 43 3f
       0.7284595 0.694949 0.743468 0.7633854
0000d0 00 c0 2a 3f a4 4c 45 3f 8b 9c 33 3f 92 b6 33 3f
       0.6669922 0.7707007 0.7016074 0.70200455
0000e0 f6 6d 2c 3f d1 49 38 3f e5 4e 37 3f 7c 64 42 3f
       0.6735529 0.71987635 0.7160476 0.75934577
0000f0 4a 59 2e 3f b1 59 2b 3f 45 ff 38 3f ad b7 22 3f
       0.68104994 0.66933733 0.7226451 0.63561517
000100 5c 38 2c 3f a0 c7 20 3f b6 5d 32 3f d2 00 3c 3f
       0.672735 0.62804604 0.6967424 0.7343875
000110 34 a9 43 3f 28 c5 59 3f be a4 4a 3f 6c 3b 36 3f
       0.7643006 0.8506646 0.79157627 0.7118442
000120 db 04 4b 3f 51 09 2d 3f 63 38 30 3f 76 66 34 3f
       0.79304284 0.6759234 0.6883604 0.70468843
000130 c7 e9 43 3f df cb 41 3f f4 15 3c 3f ff 58 30 3f
       0.7652859 0.7570171 0.73471 0.688858
000140 06 d6 4b 3f 4c d6 44 3f ba b9 29 3f 90 f4 4e 3f
       0.7962345 0.7688949 0.6629902 0.8084192
000150 bc 85 3b 3f 84 65 3d 3f b2 43 41 3f a7 08 47 3f
       0.7325094 0.73983026 0.7549392 0.7774758
000160 7f 87 34 3f 20 75 41 3f 84 82 40 3f a8 b4 33 3f
       0.7051925 0.75569344 0.7519915 0.70197535
000170 3d dd 3f 3f f4 96 4b 3f 32 e2 31 3f 9b e5 4e 3f
       0.7494696 0.7952721 0.6948577 0.808191
000180 ca 74 39 3f 87 e7 35 3f 14 ab 2e 3f 79 6a 47 3f
       0.7244383 0.7105641 0.68229795 0.7789684
000190 9e b6 41 3f ca c6 2f 3f 5e 3a 51 3f 46 fd 27 3f
       0.75669277 0.68662703 0.81729686 0.6562084
0001a0 9b eb 33 3f b3 eb 4b 3f 3d 05 4c 3f e9 63 38 3f
       0.7028138 0.79656523 0.79695493 0.7202745
0001b0 81 4d 3c 3f 9b d5 40 3f ca 20 4a 3f b8 b4 61 3f
       0.7355576 0.75325936 0.7895628 0.8816638
0001c0 0f f1 2c 3f c5 c6 40 3f 7c 7c 4b 3f a0 26 56 3f
       0.67555326 0.753033 0.79486823 0.8365269
0001d0 1c 5e 33 3f 8d db 3c 3f ed 3f 41 3f 6b 5a 3a 3f
       0.70065475 0.7377251 0.7548817 0.72794217
0001e0 11 21 38 3f bc 78 35 3f 16 cf 4e 3f 76 68 4a 3f
       0.71925455 0.7088735 0.8078474 0.79065645
0001f0 83 cd 54 3f c0 10 20 3f 48 02 34 3f c3 c5 3d 3f
       0.83126086 0.6252556 0.7031598 0.74129885

conv_blocks.0.bias f4 [128]
000000 ec bb f8 3d d9 a9 56 3e ae 1f 4d bd 88 d8 72 3e
       0.12145218 0.20963229 -0.05007904 0.23715413
000010 f3 42 75 bd 1a 98 65 3c f9 94 df bd df 67 54 3b
       -0.0598783 0.014013315 -0.10917086 0.0032410545
000020 3c f2 61 3e ad 6e 2e 3e d4 74 81 3e 21 ad 00 3e
       0.22065061 0.17034407 0.25284445 0.12566043
000030 ee c0 a7 3d e2 a1 a1 bc b3 d2 23 3e ea 5b 2d 3e
       0.08191095 -0.019730512 0.15998344 0.16929594
000040 16 b7 41 3e cd 90 1e be ff 74 36 be 2b 65 85 be
       0.18917498 -0.15484925 -0.17818068 -0.26053748
000050 f9 b8 0b be aa 81 69 be 17 07 38 3e bc 42 9e bc
       -0.1364478 -0.22803369 0.17971455 -0.01931893
000060 b4 ee 12 be 8d 37 83 be 33 5e 97 3b 02 cc 80 3c
       -0.1434887 -0.2562832 0.0046193837 0.015722279
000070 90 10 1a 3b 8a 17 69 3e 55 ba dc bd af b3 ca 3d
       0.0023508407 0.22762886 -0.107777275 0.09897553
000080 c3 6f 57 3d 20 c6 f1 3b 71 ac fa bd de 6d 6e 3e
       0.05259682 0.0073783547 -0.12239922 0.23284099
000090 06 62 b5 bd 10 7c 5e be a1 30 7f 3a 24 6a 7d 3e
       -0.08856587 -0.21727014 0.00097347243 0.2474752
0000a0 90 95 d5 bd cd 37 79 be 62 90 9c 3d 13 34 7f 3d
       -0.104289174 -0.24337693 0.07644726 0.06230552
0000b0 be 8a bb 3d a4 2d 42 3c 2d 46 b5 bd e1 50 3e 3e
       0.09157322 0.011851702 -0.088512756 0.1858554
0000c0 a6 c4 12 be 38 21 84 3d 16 1e 7e 3e 87 bc 76 3e
       -0.14332828 0.064516485 0.24816164 0.24095355
0000d0 79 f2 98 3d ff 0a 17 3e 1a c8 f7 bb 85 dd 95 bd
       0.07468123 0.14750288 -0.0075616958 -0.07317642
0000e0 fb af ae 39 82 d1 06 3e 2a 10 0b be 16 bf 33 be
       0.00033318982 0.13165858 -0.13580385 -0.17553362
0000f0 6b 7d c5 bd 13 ff 5d 3e ca f9 98 bd 78 e3 25 bc
       -0.09643062 0.21679334 -0.074695185 -0.010125034
000100 92 33 54 3e 3a f6 16 3d 76 0a 14 3e 76 d0 12 3b
       0.20722798 0.036855914 0.14457116 0.0022402084
000110 17 81 e2 bd e7 64 5d 3e d4 8a 6b 3d 30 b8 da 3c
       -0.11059778 0.21620522 0.057505444 0.026699156
000120 43 7d c8 bd 8c ad 5d bd f7 33 e2 3d c5 47 28 bd
       -0.09789517 -0.054120585 0.11045068 -0.04108407
000130 63 d3 32 be 41 96 24 be be 20 f9 3c c8 a3 6a 3d
       -0.1746345 -0.16072942 0.03041112 0.0572851
000140 51 1b 8b 3e 27 8f 14 3e 62 9a da 3c 00 bb 10 be
       0.27169278 0.14507733 0.026684944 -0.14133835
000150 0b 5e f2 bd 45 43 a4 bd 33 5d 46 bd 3a 4a 8e 3e
       -0.118343435 -0.08020643 -0.048428725 0.27791005
000160 81 46 3d be de 7a 3c be 4e 5a d7 3d 99 91 e9 bd
       -0.18483926 -0.18406245 0.10515271 -0.11404724
000170 9a 5a 27 3e 85 a7 84 be fa b1 23 be 80 07 f2 bd
       0.16343156 -0.25909057 -0.15985861 -0.11817837
000180 08 aa 4a 3d 99 a0 b3 bc 98 4e 24 bc 68 9d 3a 3e
       0.04947856 -0.021927165 -0.010028504 0.18224108
000190 b4 1d 43 be 01 b8 27 3d a1 94 50 3e bf 55 02 3e
       -0.190543 0.040946964 0.20369197 0.12728022
0001a0 cd ad 44 3e ed 6b 2c be d6 dd 57 3e 19 07 f9 3c
       0.19206925 -0.16838045 0.21080717 0.030398892
0001b0 fb 3b 80 3e ab 42 80 3e 91 9f 41 be b2 a9 87 be
       0.2504576 0.25050864 -0.18908526 -0.26496655
0001c0 6b 28 43 3e c9 a5 e4 3c e0 02 d3 3d e6 1d 8f 3d
       0.19058387 0.027911084 0.10303283 0.069881245
0001d0 b1 d3 42 3e fa 9c 4f be 01 31 1c 3d d0 9e d1 3d
       0.19026066 -0.20274726 0.03813267 0.10235369
0001e0 52 4a 33 3e c3 3e 32 3d df 71 d0 bd ce 88 3d 3e
       0.1750882 0.043516885 -0.10177969 0.18509218
0001f0 9d fa ec bd 2a f7 93 3c 0b 9f ef bd 89 88 34 be
       -0.11571238 0.018062193 -0.11700257 -0.17630209

conv_blocks.0.running_mean f4 [128]
000000 d0 bd af bb 32 68 98 3a d5 f0 75 bc 5f af df bc
       -0.0053632036 0.0011627732 -0.015011032 -0.027305303
000010 9a 2e 75 3c 43 a2 a1 bc 09 23 c4 bc 11 b4 f2 3b
       0.014964724 -0.019730693 -0.023942487 0.0074067195
000020 7f 9e a2 3c 8b f4 e2 bb e4 7e ff bb 0c 36 b6 bc
       0.019850967 -0.0069261244 -0.007797109 -0.022242568
000030 b8 20 47 bc 61 dc fe b9 83 42 22 ba 90 4e 4d bb
       -0.012153797 -0.0004861085 -0.00061897206 -0.0031327344
000040 2f e5 bf bc 8a f3 bc bb fa eb 84 bc fa 0c ae 3b
       -0.023424713 -0.005766337 -0.016225804 0.0053116055
000050 1c b7 6e 3c 67 37 9c bb 11 6f 8f 3c 91 cc 87 bc
       0.014570024 -0.0047673467 0.017509015 -0.016577037
000060 83 8a 30 bc 8e 86 68 bb b4 6b 34 bc 8e 83 c2 3c
       -0.010775211 -0.0035480591 -0.011012007 0.02374437
000070 bf 7d f0 ba 2a 22 90 bc 0b ed db bb 63 da fd 3c
       -0.0018348022 -0.017594416 -0.0067116073 0.030987924
000080 32 cc 53 3c 45 00 0b bc d1 b9 de bb 2a 70 a8 bb
       0.012927102 -0.008483951 -0.0067970534 -0.005140324
000090 02 88 cd bc 3f 4b 8b 3c 92 0e 60 3c ad 5a 26 3c
       -0.025089268 0.017003654 0.013675349 0.010153455
0000a0 d4 bd b6 3c dd d4 33 bc 42 60 5c 3c 84 c8 59 3c
       0.022307314 -0.0109760435 0.013450684 0.013292436
0000b0 03 f8 8b 3c 1d 44 34 3c 21 7b 60 bb 6b 17 8a 3c
       0.017086035 0.011002568 -0.0034253078 0.01685687
0000c0 91 79 87 bc e7 f1 99 3b e1 22 a9 bb 38 f7 11 3c
       -0.01653746 0.0046980265 -0.0051616286 0.008909039
0000d0 c2 a8 2d bb 85 8f a5 3c aa d4 8f bb 24 89 a0 3b
       -0.0026498293 0.020210037 -0.004389365 0.004899161
0000e0 94 9f 10 bc eb c1 4f 3b 72 ab 95 bc 14 a9 b6 bc
       -0.008827109 0.0031701277 -0.018270228 -0.02229742
0000f0 1d 5f 3d bc b5 f2 f0 3c cb f9 41 3c 82 f2 36 ba
       -0.011558321 0.029412607 0.01183934 -0.00069788855
000100 83 fe 5f 3b 6e ed 14 3c c9 87 aa 3b 04 a8 c7 bc
       0.00341788 0.009089811 0.005204175 -0.024372108
000110 c1 d3 75 bc b0 a5 08 bc ff d8 c1 3c a4 48 31 bb
       -0.015004099 -0.008340284 0.023663042 -0.0027051354
000120 57 e1 96 3b 9d 1a bf 3c 64 af 1d 3c 50 e3 04 3d
       0.0046044993 0.02332812 0.009624336 0.032443345
000130 39 5c 99 3c b9 5b 95 3c 5f a2 9b bb ea 32 93 bc
       0.018720733 0.018232213 -0.0047495808 -0.017968614
000140 cd 1f 44 bc fc 1d bf 3c 7a e6 0f 3d 19 cf 0b 3c
       -0.0119704725 0.023329727 0.03513191 0.008533263
000150 6c 1f d5 bb 1e 4b c8 3c 11 68 91 bc 18 46 80 bc
       -0.00650399 0.024449881 -0.017749818 -0.015658423
000160 91 f7 0e bd da 37 91 bb 51 e2 05 3c c9 ac a6 bc
       -0.034904066 -0.004431707 0.008171634 -0.020346062
000170 08 74 11 bc d7 6f 7d 3b d7 08 94 bb 58 dc 8d bc
       -0.008877762 0.0038671398 -0.0045176554 -0.017316982
000180 dc 09 3e bc 57 42 36 3c 28 98 45 bc fc 08 c8 3b
       -0.01159903 0.011124215 -0.012060203 0.0061045866
000190 ed b2 3a bc 33 82 59 3c 59 7f 84 bb a6 52 01 3b
       -0.011395198 0.013275671 -0.0040435013 0.00197331
0001a0 61 6b 38 bc 37 ba 06 3c af 4a 41 bc 11 09 db bc
       -0.01125607 0.008223108 -0.011797591 -0.026737722
0001b0 a8 11 dd 3b e0 eb b9 3c cc a2 08 3c 17 a6 89 3c
       0.0067464896 0.022695482 0.008339595 0.01680283
0001c0 ac 20 88 bc 3a 6f a9 3c c4 3a 8c 3c dc 7c 03 3d
       -0.016617142 0.02068292 0.017117865 0.032101497
0001d0 4d f4 f0 bc c6 25 4f bc 11 0b da 3c d7 c4 7a ba
       -0.029413367 -0.012643283 0.026616605 -0.00095660746
0001e0 30 87 d6 3b 4d 88 65 bc 25 c4 01 bc cc 81 0d ba
       0.0065468773 -0.014009547 -0.0079203 -0.00053980644
0001f0 8a b4 df ba b1 16 ec 3c bf 4e 3a bc 3d c5 1b bb
       -0.0017067355 0.028819414 -0.011371314 -0.0023768686

conv_blocks.0.running_var f4 [128]
000000 a7 91 db 3e 20 bd db 3e ad 4d dc 3e 31 95 dd 3e
       0.4288456 0.42917728 0.43028012 0.43277887
000010 d6 39 d5 3e fb 79 dc 3e be dd e7 3e f7 ee e6 3e
       0.41645688 0.43061814 0.45286363 0.4510419
000020 bd 54 e1 3e 36 f8 e3 3e 09 6b e2 3e d8 2e e2 3e
       0.44009963 0.44525307 0.44222286 0.44176364
000030 26 61 d7 3e a2 a5 d9 3e 16 91 d9 3e 4a 52 e3 3e
       0.42066306 0.4250918 0.42493504 0.4439872
000040 e4 97 e7 3e 6b d6 e5 3e bd d4 df 3e 96 6c f1 3e
       0.4523307 0.4489015 0.43716994 0.47153157
000050 b8 c6 df 3e 87 84 e8 3e 48 96 e4 3e b3 8a dd 3e
       0.43706298 0.4541361 0.44645905 0.43269882
000060 28 03 e9 3e 62 2a e8 3e 01 6f dd 3e 8d bc d2 3e
       0.4551022 0.45344836 0.43248752 0.41159478
000070 4f 7b d5 3e 08 1c ce 3e a0 94 e9 3e 8e 8e db 3e
       0.4169564 0.4025576 0.45621204 0.42882198
000080 b0 b7 e5 3e ac 26 d1 3e 21 a4 db 3e 94 c3 e1 3e
       0.44866705 0.40849817 0.42898658 0.44094527
000090 2e b4 d2 3e 68 55 e8 3e 25 91 d8 3e 0f d6 d1 3e
       0.4115309 0.4537766 0.42298236 0.40983626
0000a0 46 c7 da 3e d6 55 f3 3e 04 f4 d9 3e 6b 1f d0 3e
       0.4273016 0.47526425 0.42568982 0.4064897
0000b0 b4 e2 e9 3e d9 10 e4 3e 67 da db 3e 0b 00 e4 3e
       0.45680773 0.44544104 0.42940065 0.44531283
0000c0 7b ce e4 3e 2d 23 d4 3e 64 df e3 3e 34 65 e3 3e
       0.44688782 0.41433087 0.4450637 0.4441315
0000d0 2b 20 e9 3e 33 75 db 3e 5e a7 dd 3e 01 61 e3 3e
       0.45532355 0.42862853 0.43291754 0.44409946
0000e0 bc 25 dc 3e f3 4b e2 3e fb 52 e9 3e 7f d3 e1 3e
       0.4299754 0.4419857 0.45571122 0.4410667
0000f0 65 97 d5 3e 8e 63 e4 3e 95 ab db 3e 61 f3 e2 3e
       0.41717067 0.44607204 0.42904344 0.44326308
000100 df 01 e4 3e 57 f7 e6 3e f6 be d4 3e d3 9a db 3e
       0.44532678 0.4511058 0.41551942 0.4289156
000110 ca d1 e3 3e d6 72 ee 3e 3f 47 e0 3e ce 55 e3 3e
       0.44495994 0.46571988 0.43804356 0.444014
000120 ce 48 d5 3e 8d d3 df 3e bb 86 dd 3e bf 58 dc 3e
       0.41657108 0.43716088 0.43266854 0.43036458
000130 ea 0e de 3e 3f b9 e3 3e e6 7e d8 3e d0 5d e5 3e
       0.43370754 0.4447727 0.42284316 0.44798136
000140 57 95 e0 3e a2 5e de 3e 78 cd ef 3e 8a 58 d2 3e
       0.43863937 0.43431574 0.46836448 0.41083175
000150 17 3e e9 3e 0a dd dc 3e 17 9f d8 3e b7 19 e1 3e
       0.45555183 0.4313739 0.42308876 0.4396493
000160 08 6d e3 3e 79 45 df 3e 90 66 e3 3e 48 6d e2 3e
       0.44419122 0.4360769 0.44414186 0.44224
000170 28 f6 e4 3e 44 de e7 3e 3c bb e5 3e 7b 3f da 3e
       0.44719052 0.45286763 0.4486941 0.42626557
000180 24 fa db 3e 10 29 e9 3e 1c b7 e4 3e d2 88 db 3e
       0.4296428 0.4553914 0.4467095 0.42877823
000190 cf 41 df 3e 7b e4 e6 3e f1 6f ee 3e c5 06 e1 3e
       0.43604895 0.45096192 0.4656978 0.43950477
0001a0 6e d1 ed 3e 71 9e db 3e c8 e5 db 3e e1 94 e8 3e
       0.46448845 0.4289432 0.42948747 0.45426086
0001b0 67 2a df 3e 82 dc dd 3e ce ce d8 3e e7 a3 df 3e
       0.43587038 0.43332297 0.4234528 0.43679735
0001c0 25 20 e4 3e 27 4f db 3e c0 5b d2 3e 34 81 cb 3e
       0.44555774 0.42833826 0.41085625 0.39747012
0001d0 72 42 ee 3e 85 a4 db 3e 97 d1 d3 3e 70 9a e3 3e
       0.4653507 0.42898956 0.41370842 0.44453764
0001e0 7b 88 dc 3e 3a 5a dc 3e 4e 0c d4 3e 15 bc d6 3e
       0.43072876 0.43037587 0.41415638 0.4194037
0001f0 c8 b8 cf 3e d6 d1 d9 3e b6 41 e7 3e 7f 21 dc 3e
       0.40570664 0.42542905 0.4516732 0.42994305

conv_blocks.1.weight f4 [3, 128, 3, 3]
000000 3f 30 50 bc 3c a0 a2 bc 7b 9e 23 3c b4 e3 88 bc
       -0.012706815 -0.019851796 0.009986515 -0.01671014
000010 bf 10 8a 3c d8 49 30 bb 7e c1 5c 3c d8 6d d6 38
       0.016853688 -0.0026899483 0.0134738665 0.00010224775
000020 3e 91 49 38 a2 d2 79 3c d9 c2 b5 bc 52 9f aa bc
       4.80574e-05 0.015247973 -0.022187637 -0.020827923
000030 8f 73 87 bb 19 91 a3 bc 30 b5 97 bc a4 a1 b0 3b
       -0.0041336487 -0.019966649 -0.018519014 0.005390363
000040 41 0c 5d bd 58 30 a9 3c 38 13 2d bc b9 b0 36 3c
       -0.053966764 0.020652935 -0.010563664 0.011150532
000050 05 b8 d0 bc 52 c7 3d bc 68 05 e4 3a 94 ef 88 bb
       -0.025478372 -0.011583166 0.0017396631 -0.0041789506
000060 5c 9c a8 3b 18 c6 79 bc f8 37 1c bb 4a 14 a3 3b
       0.0051455926 -0.015244983 -0.002383707 0.004976784
000070 c3 4d c8 3b cf 2a 1f bc e3 21 4c bc 7f d6 9f bc
       0.0061127855 -0.009714796 -0.012459251 -0.01951146
000080 24 78 7e b9 64 b6 8f ba 1c e8 7b 3c 81 67 72 3c
       -0.00024268084 -0.0010964391 0.015375163 0.014795185
000090 0b e0 ab bc a6 20 ea 3c a4 eb 65 bb e2 c8 c5 b9
       -0.020980855 0.028580021 -0.003508308 -0.00037724437
0000a0 9f 68 41 3c d4 3d 0a 3c 83 56 dd 3b 95 97 de 3b
       0.011804729 0.008437593 0.0067546978 0.0067929723
0000b0 48 50 b4 3a 34 3b 6f 3c a5 39 ee bc 43 2d 0d ba
       0.0013756836 0.0146015175 -0.029080221 -0.00053854677
0000c0 79 fa 07 bc f5 2b dd bc f9 5c 3c 3c e9 21 ea 3c
       -0.008299463 -0.0269985 0.011496776 0.028580623
0000d0 51 15 2f 3c 44 e1 6c bc ba 73 87 3c 68 c9 fb bc
       0.010686235 -0.014458004 0.016534675 -0.030735686
0000e0 ec aa a4 3c 9c 4a ea bb a0 bd e7 bb cb d8 01 3b
       0.020101033 -0.0071500074 -0.0070721656 0.0019813057
0000f0 42 6e 0c 3c ec 80 7a 3c 83 4e 90 3b ac 31 5d 3b
       0.008571209 0.015289526 0.0044038906 0.003375153
000100 71 14 05 3b 9b 11 44 bc 84 72 41 3c 22 27 23 bc
       0.0020306373 -0.011967088 0.011807088 -0.00995806
000110 71 8a 86 b9 3c 3c 0e bc 6b e1 aa 3a b7 0c 82 ba
       -0.0002566162 -0.008681353 0.001303715 -0.0009922002
000120 ea 5e 93 3c f8 c3 ff bc 41 9c e4 bc 9b 39 e0 bb
       0.017989594 -0.031221375 -0.027906539 -0.0068428046
000130 38 44 fd bc 54 ff f5 ba 09 13 5c 3c 7c f7 fa 3a
       -0.030916318 -0.001876811 0.013432273 0.0019147242
000140 d9 bc 24 3c 88 e1 c0 bb 56 35 f4 bc d9 e2 03 bb
       0.01005479 -0.0058862604 -0.029810589 -0.0020124225
000150 e9 31 39 bb 29 87 17 bd 81 af d0 bb 2c 49 02 3c
       -0.0028258509 -0.036994133 -0.006368578 0.007952016
000160 c3 53 83 bc 1b 12 bb 38 8a 5d b3 bc 33 4f 95 3c
       -0.016031152 8.920227e-05 -0.021895189 0.018226242
000170 a0 92 21 bc 0f 75 43 bd 0a e8 28 bd aa f2 fa ba
       -0.009861618 -0.047719058 -0.041236915 -0.0019145806
000180 8a 4a 59 bb bc 87 a4 3c 2e 75 41 3b 3e 7a 6d bc
       -0.0033156 0.020084254 0.0029519307 -0.014494477
000190 3b f6 9a 3b 94 ef 4c bc 50 bd 8a bc 0b 8f 5f ba
       0.00472906 -0.012508292 -0.016935974 -0.000852809
0001a0 b4 16 27 bb 20 58 83 bb 8a d2 77 3c 95 e2 91 bc
       -0.002549571 -0.004008308 0.01512588 -0.017808238
0001b0 63 f1 28 3c 76 b5 a6 bb a6 b4 73 bc 73 d5 96 bc
       0.010311457 -0.00508755 -0.014874613 -0.018412327
0001c0 c2 c7 e3 3b 58 bd 27 bb b5 6c d8 ba 81 69 e5 3a
       0.006951303 -0.0025595035 -0.0016511889 0.0017502756
0001d0 35 24 16 bc 34 6c a6 3b ca cc 6e 3c 0e 79 8a bb
       -0.009163906 0.005078817 0.014575193 -0.0042258566
0001e0 83 9a 90 bc de 0c 1e 3c b6 e0 18 bb 3b 8d 22 3b
       -0.017651802 0.009646622 -0.0023327298 0.0024803418
0001f0 89 a1 cd 3b 0a c3 64 ba a2 db a6 3a 39 80 27 bc
       0.00627536 -0.0008726573 0.0012730251 -0.010223442
000200 70 b2 89 3c 50 c9 53 bc 8f 4f 83 bc 0e 33 c6 bb
       0.016808718 -0.012926415 -0.016029147 -0.0060485667
000210 30 b3 90 3a 27 9f 3d 3c b6 e9 ef 3c e3 6b c1 3a
       0.001103973 0.011573589 0.029286247 0.0014756884
000220 e7 d2 25 bb 9d b5 92 bc 80 2d 02 3b 8a 6b ce 3b
       -0.002530271 -0.017908866 0.0019863546 0.0062994407
000230 7a 40 d0 3b f9 23 84 3c 15 6f 23 bd c0 86 db bb
       0.0063553425 0.016130434 -0.039900858 -0.006699413
000240 0e 9f 1c bc 8f af a0 bc 25 de 87 3b c5 2c 57 bc
       -0.009559406 -0.019614963 0.0041463547 -0.0131332325
000250 ee 75 5a bc c7 fd d3 ba 49 b2 d4 bb ce 81 19 3b
       -0.013333781 -0.0016173654 -0.00649098 0.0023423317
000260 c2 a3 cd 39 c8 71 de 3a f9 f1 5a 3c 5a e3 a8 bc
       0.00039222656 0.0016971165 0.013363355 -0.020616222
000270 4a f1 82 3b 81 09 41 bc f1 d4 11 3c dc 6d 4a 3c
       0.003996049 -0.011782051 0.008900867 0.012355294
000280 63 93 24 bc 2d ca a8 bb 5c b8 28 3c f5 88 9f bc
       -0.010044905 -0.0051510544 0.010297861 -0.019474486
000290 ea 99 f2 3c 29 1e 7f 3a 6a 46 a4 3c 49 49 2e bb
       0.029614408 0.0009731972 0.020053107 -0.0026593974
0002a0 0d 84 36 bc 1b f4 01 3c bf 2d 07 bb 30 e7 88 bb
       -0.011139882 0.007931734 -0.0020626632 -0.0041779503
0002b0 34 fa 27 3c 70 89 af 3c 22 e4 e2 3b 9c 07 b6 3c
       0.010252524 0.02142784 0.006924168 0.022220425
0002c0 55 ea 94 3c 41 f9 48 bc 0a 62 a5 3c 2f f2 a8 bb
       0.018178144 -0.012266458 0.02018835 -0.0051558237
0002d0 5a 38 43 bc 93 b1 44 3b 5f 11 63 3b 90 8f 9f 3b
       -0.011915291 0.003001307 0.0034647805 0.004869409
0002e0 ad 8d 7a bc cc ab bf 3a d3 76 50 bc ed c9 b1 bc
       -0.015292567 0.0014623343 -0.012723642 -0.021702731
0002f0 3d ba b6 b7 84 12 84 3c e7 ab ad 3c 0e c2 18 3d
       -2.1782815e-05 0.01612211 0.021200133 0.03729444
000300 cc 65 12 3b a4 d1 f3 3b 81 f8 9e ba 65 9c f8 3a
       0.0022338508 0.0074407626 -0.0012128503 0.0018967508
000310 04 b3 8b 3c 07 d8 6c bc d8 4f a8 3b f7 e1 50 bc
       0.017053135 -0.014455802 0.0051364712 -0.012749187
000320 b2 98 a3 bb 87 10 9d 3b 19 15 32 bc ec d0 1b 3c
       -0.004992568 0.00479323 -0.010869288 0.00951026
000330 68 cc 06 3b c9 0f e8 3c b2 e1 44 3c 60 82 a1 3b
       0.0020568613 0.02832784 0.012016701 0.004928872
000340 34 91 e3 b9 b2 71 5f bc 0f 35 64 3b 48 96 53 3c
       -0.00043405 -0.013637947 0.0034821664 0.012914248
000350 c3 3d f7 bb eb 72 e5 bb ca c6 eb bb 0e f1 d6 ba
       -0.0075452044 -0.0070022247 -0.0071953284 -0.0016398744
000360 07 d8 39 b9 e5 9d 62 3b f5 d6 0b ba cb 74 2a bc
       -0.00017723451 0.0034578976 -0.00053344603 -0.010403822
000370 63 66 29 3c ec 1f 8b bb 91 f6 ef bb ec 52 79 3c
       0.010339352 -0.0042457487 -0.007323094 0.015217524
000380 c9 7b 0b bb fd 04 14 bc 1a d9 ad bb a0 fb f3 ba
       -0.0021283498 -0.009034392 -0.0053054215 -0.0018614419
000390 0a dc ae 3b 3d 85 75 3c cb 14 8b 3c 77 51 11 bc
       0.0053362893 0.01498538 0.016977688 -0.00886952
0003a0 bd 59 3e 3c 6c 3f eb bc d7 e0 b7 3a 2c 67 89 bb
       0.011618075 -0.028716765 0.00140288 -0.0041932072
0003b0 0e ec ad 3c 54 d6 2e 3c eb 4b 24 bc f8 19 13 bb
       0.021230724 0.010671217 -0.010027866 -0.0022445899
0003c0 df a0 f4 b9 23 15 f0 3b 00 f2 12 bb 1d 20 93 bb
       -0.00046659165 0.0073267384 -0.0022422075 -0.004489912
0003d0 e7 7d 6d ba 94 7e 5e bb bf 5b 1b bc dd c2 e7 b8
       -0.00090595934 -0.0033949958 -0.009482323 -0.000110512345
0003e0 97 70 c4 39 7c dc b3 3b 4b 48 8e 3b 39 c4 14 bc
       0.0003746792 0.0054889303 0.004342114 -0.009079986
0003f0 12 c8 dc 3b 94 ca 94 bb a3 2f ae bb 3d 76 b2 bb
       0.0067377174 -0.0045407508 -0.0053157373 -0.005446224

conv_blocks.1.bias f4 [3]
000000 fa be 02 be 90 b6 33 be 7e 83 26 be
       -0.12768164 -0.17550111 -0.16261098
